results/models/model_expID_1_dfID_46.pth (torch, 16458 bytes, 3 tensors)

weights f4 [4, 6]
5.6231503 -3.6517072 -5.475738 -1.6322534 6.095052 -5.0331874 1.3631197 0.38197324
-0.2157305 4.0867004 3.2045875 -1.3826076 -3.2695963 -4.327668 2.818998 5.2049327
-0.33896345 2.2431462 3.7915368 -0.5254681 2.184471 -4.425314 -1.7957938 1.4636883
00000000: d9f0 b340 92b5 69c0 3f39 afc0 aeed d0bf
00000010: aa0a c340 df0f a1c0 b57a ae3f ff91 c33e
00000020: 75e8 5cbe 40c6 8240 f617 4d40 49f9 b0bf
00000030: 1141 51c0 427c 8ac0 776a 3440 cf8e a640
00000040: 9e8c adbe b58f 0f40 8aa8 7240 1485 06bf
00000050: 5fce 0b40 2c9c 8dc0 92dc e5bf 235a bb3f

weight f4 [16, 16]
0.03609878 0.026937753 0.24341497 0.054014802 -0.13267201 -0.025410265 0.08716819 0.12400371
0.03005457 -0.16631132 -0.08333513 -0.017623872 0.06662211 0.13462296 -0.1426489 0.14074785
0.1822047 0.052586585 -0.06751311 -0.12321144 -0.16789806 -0.10834023 -0.05709052 0.16687399
0.058660865 -0.05383432 -0.15609851 0.16873261 -0.14454836 -0.035922855 -0.0012932718 -0.23298949
0.1918492 -0.20265314 0.13971967 0.09849888 -0.08774057 -0.12972435 0.19120708 -0.10237357
0.22273648 0.00083842874 0.23556703 0.17412043 -0.07216829 -0.041805297 0.01004988 0.15900609
0.018864244 -0.1086553 -0.010082364 -0.028098226 0.22749457 0.109681875 -0.17114624 -0.16969913
-0.1331932 0.13994831 0.01974842 -0.07422519 0.061308056 0.16089839 0.008551896 0.09862405
-0.03140071 0.064049065 0.17760667 -0.047810882 -0.07724348 -0.077510804 0.06851441 -0.12823763
0.23074025 0.13273743 -0.2183496 -0.08459923 0.2151649 -0.08951044 -0.23351926 0.1580182
-0.19662836 -0.05793655 -0.06896749 -0.13253999 0.23179725 0.1356796 -0.10937923 -0.013791919
-0.08609292 -0.061957866 0.097479016 -0.030050784 0.08246222 -0.038852066 -0.19530502 0.24704188
0.24173358 -0.1239011 -0.077236295 -0.14511347 0.13812557 0.12336856 0.084000826 -0.077878565
0.011400491 0.16196254 0.07012364 0.23650986 0.10517317 -0.18244478 -0.20391402 0.1510452
-0.04428929 -0.09745586 0.13132182 -0.060272664 -0.18876225 -0.103363186 -0.026923478 -0.07565299
0.063801795 -0.067808986 0.24878624 0.09399104 -0.12570012 -0.13909298 -0.10444802 0.15215284
-0.09345454 0.010754228 0.19193572 -0.07231277 -0.017948657 -0.12946722 0.21111125 0.08550727
-0.030538976 -0.112581104 0.20341823 0.13417917 0.076765865 0.13056266 0.21160734 0.09199688
-0.21882683 -0.08905655 -0.08881867 0.24914402 0.12360254 -0.14088252 0.103114486 -0.119684815
0.23131564 -0.07092345 0.082752734 0.16606411 0.17655966 -0.058274597 0.22283089 0.03951794
-0.04338956 -0.23693946 0.04606366 0.021913916 -0.03350714 -0.07725167 0.22622156 -0.07366246
-0.09365618 -0.08211383 -0.06403601 -0.14663339 0.23125693 0.23349932 -0.16330093 -0.15573129
0.044919014 0.07059324 -0.08664757 -0.23306519 0.23022911 -0.058429062 0.18764257 -0.11417273
-0.07102314 0.114884526 0.017077774 -0.045238554 -0.06410882 0.15914798 0.12165752 0.030942231
0.2178925 0.03095895 0.23372716 -0.027906805 0.22860238 0.049020976 -0.16844347 -0.112534195
-0.24594483 0.10499391 0.122858286 0.24103782 -0.16573218 -0.039021403 -0.21402234 0.16448227
-0.030607432 -0.1449708 -0.04552865 0.0840559 0.21401283 -0.10121548 0.006853789 -0.17654285
0.07352921 0.03644228 0.09385595 0.14706245 0.093216985 0.034018904 -0.2283706 -0.02905333
-0.13574687 0.014687002 -0.14125001 -0.0028954446 -0.19489965 0.16542605 -0.12747574 -0.13282943
0.21976012 0.051504076 -0.1909608 -0.15054268 -0.00616166 -0.23792392 0.15527177 0.14775348
-0.20001385 0.027943611 0.20354673 -0.13170654 -0.2146411 -0.08546874 -0.18529963 0.05925861
-0.1078859 -0.20647928 -0.16797125 0.1986444 -0.15616855 0.09535709 -0.11155102 -0.12009251
00000000: 50dc 133d 90ac dc3c c641 793e a03e 5d3d
00000010: 2cdb 07be 3029 d0bc 3c85 b23d a8f5 fd3d
00000020: 0035 f63c 844d 2abe 9cab aabd f05f 90bc
00000030: 2c71 883d 9ada 093e 8e12 12be 3420 103e
00000040: de93 3a3e 0865 573d 5044 8abd 4856 fcbd
00000050: 78ed 2bbe 7ce1 ddbd c0d7 69bd 04e1 2a3e
00000060: 6046 703d 6081 5cbd 4ad8 1fbe 3ec8 2c3e
00000070: 7c04 14be d823 13bd 0083 a9ba cc94 6ebe
00000080: 1e74 443e 4e84 4fbe ac12 0f3e c8b9 c93d
00000090: 54b1 b3bd 76d6 04be cacb 433e 3ca9 d1bd
000000a0: 0815 643e 00ca 5b3a 7c38 713e a04c 323e
000000b0: f8cc 93bd 083c 2bbd 40a8 243c 7ed2 223e
000000c0: 3089 9a3c ac86 debd 8030 25bc 402e e6bc
000000d0: 56f4 683e e4a0 e03d f640 2fbe 9cc5 2dbe
000000e0: cc63 08be 9c4e 0f3e 70c7 a13c 6003 98bd
000000f0: 281e 7b3d 8cc2 243e 401d 0c3c 68fb c93d
00000100: 089e 00bd 282c 833d 86de 353e 58d5 43bd
00000110: d431 9ebd fcbd 9ebd 4851 8c3d ba50 03be
00000120: 2c47 6c3e 52ec 073e 0a97 5fbe 5c42 adbd
00000130: 3054 5c3e 4051 b7bd ac1f 6fbe 86cf 213e
00000140: f258 49be e04e 6dbd d43e 8dbd 90b8 07be
00000150: 425c 6d3e 98ef 0a3e 3802 e0bd 80f7 61bc
00000160: 7c51 b0bd 88c7 7dbd 14a3 c73d 102d f6bc
00000170: f4e1 a83d 5823 1fbd 0afe 47be 8cf8 7c3e
00000180: 0289 773e dcbf fdbd 102e 9ebd a098 14be
00000190: ca70 0d3e a8a8 fc3d a008 ac3d cc7e 9fbd
000001a0: 20c9 3a3c 82d9 253e fc9c 8f3d a42f 723e
000001b0: 0865 d73d ced2 3abe d6ce 50be 98ab 1a3e
000001c0: b068 35bd f096 c7bd 3a79 063e 78e0 76bd
000001d0: e44a 41be 14b0 d3bd a08e dcbc f4ef 9abd
000001e0: 84aa 823d 70df 8abd d2c1 7e3e 607e c03d
000001f0: 88b7 00be 646e 0ebe d8e8 d5bd f4cd 1b3e
00000200: 1865 bfbd 8032 303c cc8a 443e b818 94bd
00000210: 1009 93bc 0e93 04be 8c2d 583e 701e af3d
00000220: e02c fabc ec90 e6bd de4c 503e 4466 093e
00000230: 6c37 9d3d 38b2 053e 98af 583e dc68 bc3d
00000240: 2414 60be 4863 b6bd 90e6 b5bd 9c1f 7f3e
00000250: 5423 fd3d 8243 10be b02d d33d 501d f5bd
00000260: 02de 6c3e 5040 91bd 447a a93d b60c 2a3e
00000270: 0ecc 343e 58b1 6ebd c82d 643e 90dd 213d
00000280: 40b9 31bd 42a0 72be 40ad 3c3d d084 b33c
00000290: c83e 09bd 2036 9ebd a0a6 673e 58dc 96bd
000002a0: d0ce bfbd 4c2b a8bd 5025 83bd 1027 16be
000002b0: 9ece 6c3e 721a 6f3e 5c38 27be 0678 1fbe
000002c0: 00fd 373d 3093 903d 4874 b1bd a4a8 6ebe
000002d0: 2ec1 6b3e 5053 6fbd 6025 403e 64d3 e9bd
000002e0: 9474 91bd 9448 eb3d b0e6 8b3c 104c 39bd
000002f0: 7c4b 83bd b0f7 223e 9427 f93d 907a fd3c
00000300: 361f 5f3e a09d fd3c 2c56 6f3e d09c e4bc
00000310: be16 6a3e 38ca 483d 727c 2cbe 5478 e6bd
00000320: f6d8 7bbe 0c07 d73d 209d fb3d 9ed2 763e
00000330: b2b5 29be e8d4 1fbd ac28 5bbe 0a6e 283e
00000340: 70bc fabc 3a73 14be 407c 3abd 8025 ac3d
00000350: 2e26 5b3e 104a cfbd c095 e03b a6c7 34be
00000360: 7c96 963d 8044 153d 8c37 c03d 8a97 163e
00000370: 8ce8 be3d 6857 0b3d fcd9 69be 4001 eebc
00000380: 3a01 0bbe c0a1 703c d8a3 10be 80c1 3dbb
00000390: c693 47be 7265 293e 0089 02be 7004 08be
000003a0: cc08 613e f0f5 523d 3a8b 43be dc27 1abe
000003b0: c0e7 c9bb 54a2 73be 90ff 1e3e b04c 173e
000003c0: 6ed0 4cbe 00ea e43c 8e6e 503e 14de 06be
000003d0: e0ca 5bbe 3c0a afbd 30bf 3dbe 28b9 723d
000003e0: 48f3 dcbd 4e6f 53be a800 2cbe 7069 4b3e
000003f0: a6ea 1fbe 944a c33d dc74 e4bd 10f3 f5bd

bias f4 [16]
0.16496661 0.038607955 0.23554805 0.07621342 0.1633232 -0.16929552 -0.15217099 0.08631787
-0.1693433 0.046171784 -0.17682046 0.20038652 -0.008054614 0.05828005 0.04580468 0.18006799
00000000: 02ed 283e 6023 1e3d 8233 713e c815 9c3d
00000010: 323e 273e ce5b 2dbe b6d2 1bbe 6cc7 b03d
00000020: 5468 2dbe a01e 3d3d 6c10 35be 2032 4d3e
00000030: 80f7 03bc 10b7 6e3d b09d 3b3d be63 383e
