results/models/model_expID_1_dfID_35.pth (torch, 21450 bytes, 3 tensors)

weights f4 [4, 9]
000000 8f 14 95 40 d6 de 6b c0 5c 55 a8 40 d9 1f 15 be
       4.6587596 -3.6854758 5.26042 -0.1456293
000010 4f bd b3 3f 15 db 55 40 83 00 6d 3e 38 6c 23 c0
       1.4042147 3.3414967 0.23144726 -2.5534801
000020 45 26 7b c0 0c 98 a8 c0 db c3 3f 40 c5 ce 3c bf
       -3.9242108 -5.2685604 2.996329 -0.73753005
000030 d9 66 89 c0 20 c8 98 40 c1 b0 35 c0 dc f3 89 bf
       -4.2938046 4.7744293 -2.8389132 -1.0777545
000040 93 00 24 c0 9f 27 cf 3f 33 6b 80 3f 54 bc a0 3f
       -2.562535 1.6183966 1.0032715 1.2557473
000050 e6 56 3c c0 78 2a 2d c0 16 2d 46 c0 6a ae 0a c0
       -2.9428039 -2.705717 -3.0965018 -2.1668954
000060 0c 17 8f c0 0d 77 86 c0 bb 8e ba 40 72 11 b9 40
       -4.4715633 -4.2020326 5.829923 5.7833796
000070 80 97 7a c0 a5 49 bf c0 4c 9c 6d c0 49 b9 20 40
       -3.9154968 -5.97774 -3.7126646 2.511309
000080 89 cc 60 40 09 d7 bf c0 39 d7 79 3f cd 66 c8 c0
       3.5124838 -5.9949994 0.9759403 -6.262549

weight f4 [16, 16]
000000 c6 16 29 3e 64 6e 3f be de 9f 50 3e 7a cd 23 3e
       0.16512594 -0.18694454 0.20373484 0.15996352
000010 cc 17 57 3e 14 47 44 be e0 d4 2b be 24 a1 f3 3d
       0.21005172 -0.19167739 -0.16780424 0.118959695
000020 f0 f7 6e be c8 05 7d 3e 38 f7 59 3d f0 3d 04 3d
       -0.23336768 0.24709237 0.05321428 0.03228563
000030 ca ec 5a be c0 29 a3 3d 78 2a dc 3d 80 76 22 3d
       -0.2137939 0.079669476 0.10750288 0.03966379
000040 0e 3c 76 3e 30 c3 99 3d e2 00 63 be e2 18 57 3e
       0.24046347 0.07507932 -0.22168306 0.21005586
000050 d4 d6 ad 3d 64 40 f4 bd 60 27 6b be 36 f0 11 3e
       0.08488241 -0.11926344 -0.22964239 0.1425179
000060 58 48 73 3e 66 be 51 be 60 d9 5f 3c 04 b1 b7 3d
       0.23758066 -0.20482787 0.013662666 0.0896931
000070 44 c9 f1 bd 10 0f 60 bd 58 f0 2a be a8 0e f2 bd
       -0.118059665 -0.054701865 -0.16693246 -0.11819202
000080 06 63 69 be 80 db bd bb fc c9 17 3e e4 05 f9 3d
       -0.2279168 -0.0057939887 0.14823145 0.12159327
000090 12 7d 70 3e 2c d5 60 be 70 fd fb bc d2 3f 79 3e
       0.2348521 -0.21956319 -0.030760497 0.24340752
0000a0 f0 ad 27 3d fc 61 90 bd 5c 8e 66 be 9c 41 ee 3d
       0.040937364 -0.07049939 -0.22515243 0.11633608
0000b0 20 59 42 3e 9c 47 4d 3e 0a 50 56 3e d0 79 48 3d
       0.18979311 0.20046848 0.2092897 0.048944294
0000c0 00 76 36 3e c0 e0 80 bd 08 e7 4f 3e 20 39 af bc
       0.17818451 -0.06292868 0.20302975 -0.021389544
0000d0 e0 2a 53 bd 5c 82 fe bd 66 4d 08 3e 6c 28 cf 3d
       -0.05155456 -0.12427208 0.13310775 0.10115132
0000e0 3e d6 22 3e fc 99 23 be 78 1d 08 be 4c 42 72 3e
       0.1590204 -0.15976709 -0.13292491 0.23658103
0000f0 2e 17 0e be 5a 00 12 be b4 fd 88 bd b8 7b a5 bd
       -0.1387603 -0.14257947 -0.06689015 -0.08080238
000100 1e 19 2e be ea e1 4e 3e 70 48 e4 3c 90 6d e9 3d
       -0.17001769 0.20203367 0.027866572 0.113978505
000110 d8 e2 3d 3e 26 e3 25 be 3c 6d 43 3e 84 3e 00 be
       0.18543565 -0.16199932 0.19084638 -0.12523848
000120 a8 07 23 bd d6 bb 41 3e 86 06 6c 3e f8 ba 60 3e
       -0.039802223 0.1891931 0.23049363 0.21946323
000130 82 3b 13 3e 6e f1 6d 3e f4 79 b8 bd 50 5a 82 bc
       0.14378169 0.2323663 -0.09007636 -0.015912205
000140 c8 1e af bd 50 86 96 bc 30 06 f9 bc 42 c6 08 3e
       -0.08550793 -0.018374592 -0.030398458 0.1335688
000150 b2 f5 2f 3e 56 59 38 be f2 5c 0d be c0 77 9d bd
       0.17183569 -0.18002829 -0.13804987 -0.07688856
000160 f0 e2 08 3d c8 bf c6 bd 4c 38 1f be 08 07 3b bd
       0.03341955 -0.09704548 -0.1554882 -0.045661002
000170 dc db f9 bd 80 89 e1 3b a2 81 3d be 80 fb 7f bd
       -0.12200138 0.0068828464 -0.18506482 -0.06249571
000180 ec e9 bc bd f0 72 0d bd 5a 25 49 3e 76 dd 27 3e
       -0.092243046 -0.03453344 0.19643155 0.16393074
000190 a0 39 a5 bd e6 b4 6a be 14 1d 37 be 2a 66 44 be
       -0.08067632 -0.2292057 -0.17882186 -0.19179597
0001a0 80 51 c2 bc 84 5f e3 bd c0 e7 32 be 60 0a 63 3d
       -0.023720503 -0.111022025 -0.17471218 0.055429816
0001b0 c0 ca 83 3c d8 83 19 bd c8 99 b9 bd 5e 31 5a 3e
       0.01608789 -0.03747925 -0.090625346 0.21307895
0001c0 44 9f 76 be 80 2b c3 bb 00 ae ed 3d ce bf 34 3e
       -0.24084193 -0.0059561133 0.116054535 0.17651293
0001d0 f2 b6 5e be 50 59 20 bd f6 7f 55 3e 80 90 28 3d
       -0.21749476 -0.039147675 0.20849594 0.04115343
0001e0 00 d1 9a 3d e0 3b e2 bd b4 ab 31 3e 50 ff bf bd
       0.07559395 -0.110465765 0.17350656 -0.09374869
0001f0 04 db 09 be 4a 35 68 3e 78 a1 87 3d 00 35 e2 ba
       -0.13462454 0.22676578 0.066225946 -0.0017258227
000200 f6 68 32 be b8 a8 62 bd d4 a8 44 be 98 3e 2c be
       -0.17422852 -0.055336684 -0.19205028 -0.16820753
000210 d8 a5 12 bd 90 f6 45 3d 88 c2 51 be b6 ce 78 3e
       -0.035802692 0.048330843 -0.20484364 0.24297604
000220 3a 48 3c 3e 50 3e 6e be f0 04 20 3e 3e 9e 19 be
       0.18386927 -0.23265958 0.15626884 -0.15001771
000230 48 9c 50 be 9e d5 6f 3e e8 e2 cd bd 74 d7 a9 bd
       -0.20372117 0.23421332 -0.100530446 -0.082930475
000240 f0 36 ff 3c 28 b2 10 3e 10 8b 9d 3c 04 98 89 bd
       0.031154126 0.14130461 0.01923135 -0.06718448
000250 80 a4 ad 3c c0 a2 04 be 5c 36 3a be 34 50 85 3d
       0.021196604 -0.12952709 -0.18184799 0.06509438
000260 c0 cd d7 3c ec 67 fe 3d 44 34 be bd dc 06 7d be
       0.026343226 0.12422165 -0.092873126 -0.24709648
000270 60 16 7e bd 5e b5 77 be a0 3e a1 bc e8 1c fa 3d
       -0.062033057 -0.2419028 -0.019683182 0.12212545
000280 30 7d bd 3c e8 e2 12 3e 58 ff 3e 3d 70 8d db 3d
       0.023130983 0.1434437 0.046630234 0.107203364
000290 a6 6f 66 3e 88 5d 18 3d 20 68 2a 3d b8 be cf bd
       0.22503528 0.037198573 0.041603208 -0.101437986
0002a0 e6 a1 1f 3e 48 c0 56 3e ae ce 31 be 28 7a 78 3e
       0.15589103 0.20971787 -0.17363998 0.24265349
0002b0 80 72 9a 3d b0 e7 0e bd c2 4b 6a be e2 d5 7f be
       0.075413704 -0.034888923 -0.22880462 -0.24983934
0002c0 08 19 49 be d4 23 56 be 74 b7 2a be dc 19 95 bd
       -0.19638455 -0.20912105 -0.16671544 -0.07280323
0002d0 82 7f 54 be 44 03 56 be 20 ef e3 bc 7c 62 57 be
       -0.20751765 -0.20899683 -0.027823985 -0.21033663
0002e0 60 28 b9 bc c8 71 2e 3d 98 54 42 3d 80 a7 20 3e
       -0.02260226 0.04258898 0.047443956 0.15688896
0002f0 10 bc 0b 3e f0 96 0f be 14 70 ac bd 40 9e bb 3b
       0.13645959 -0.14022422 -0.08419815 0.005725652
000300 8e 0b 58 3e 30 7c f8 3d d8 42 0f be 50 4c f0 bc
       0.21098158 0.12133062 -0.13990343 -0.029333264
000310 40 16 39 3d 28 d3 b1 3d a8 40 be bd 08 a8 60 be
       0.045187235 0.08682853 -0.09289676 -0.21939099
000320 70 26 1c be 00 d4 0c 3c e2 b2 2e be b8 81 8e 3d
       -0.15249038 0.008595467 -0.17060426 0.06958336
000330 8a eb 20 3e 80 ee 32 bb 7c 4d 06 3e d6 53 33 3e
       0.15714851 -0.0027302802 0.13115495 0.1751245
000340 56 71 23 3e 38 cf 73 be 00 06 68 3e 08 62 87 3d
       0.15961203 -0.23809516 0.22658539 0.06610495
000350 fc c8 7d be 88 cf 7e 3d 4a 48 30 be 82 f5 6c 3e
       -0.247837 0.062209636 -0.17215076 0.23140529
000360 5a fd 4a 3e 52 da 28 be 02 be 3d be 10 10 90 3c
       0.19823208 -0.16489533 -0.18529513 0.017585784
000370 a4 a1 87 bd c8 3a db 3d 54 7b 6e be 26 cc 3d 3e
       -0.066226274 0.10704571 -0.23289233 0.18534908
000380 60 a3 b7 3c 00 e6 a0 3b 80 4a 23 be a0 89 7e 3c
       0.02241677 0.0049102306 -0.15946388 0.015535742
000390 92 ec 2d 3e 02 67 79 3e ee cd 25 be 00 9b d6 bd
       0.16984776 0.243557 -0.16191837 -0.10478783
0003a0 40 f3 54 3d 2e f3 0f 3e b2 de 56 be 1c 12 bf bd
       0.051989794 0.1405761 -0.20983389 -0.09329626
0003b0 78 62 4b be de 3d 6b 3e bc b8 ae bd b6 f8 19 3e
       -0.19861782 0.22972819 -0.08531329 0.15036282
0003c0 48 8c 0b 3e 20 07 bd 3c 08 bb 47 3d ae 88 26 3e
       0.13627732 0.023074687 0.04876235 0.16263077
0003d0 d8 5d 01 bd f8 b9 06 3e e0 42 08 bd 80 e4 80 3b
       -0.031583637 0.13156879 -0.033266902 0.0039334893
0003e0 88 04 af 3d c4 f7 66 be cc c6 f3 bd 3e 53 4c be
       0.08545786 -0.22555453 -0.11903152 -0.1995363
0003f0 38 b2 9b bd d0 cd 80 bc 74 60 cc 3d fe e1 4c be
       -0.07602352 -0.015723139 0.099793345 -0.20008084

bias f4 [16]
000000 5c 3f 56 be 28 b0 31 3e 70 f1 f3 bc 00 6b 01 be
       -0.20922607 0.17352355 -0.029778212 -0.12638474
000010 78 4c 6c bd 40 74 5a 3c 64 36 3b be 9a 34 76 be
       -0.057690114 0.01333338 -0.18282467 -0.24043503
000020 c4 1c 28 be 50 e6 4a 3e 28 81 94 3d 76 d4 7e be
       -0.16417223 0.1981442 0.07251197 -0.24885735
000030 0c e8 09 be 9e 2a 42 3e 6a 89 75 3e a0 9b 4b 3d
       -0.13467425 0.1896157 0.239782 0.049708962
