results/models/model_expID_1_dfID_57.pth (torch, 32906 bytes, 3 tensors)

weights f4 [4, 3]
4.6394353 0.38774407 -3.358635 -6.1399436 -0.8737546 -1.227089 0.28493834 -0.2715367
0.69562995 0.54520476 3.2785106 2.6687777
00000000: 4176 9440 6486 c63e e0f3 56c0 6b7a c4c0
00000010: 62ae 5fbf 4111 9dbf 70e3 913e dc06 8bbe
00000020: ce14 323f 8a92 0b3f 1ed3 5140 41cd 2a40

weight f4 [16, 16]
0.048963636 0.17264807 0.22320512 -0.10173485 0.0069009364 0.07217294 0.19952798 -0.2429556
0.039225817 -0.18909648 0.20904684 0.090266615 -0.14999136 -0.19394505 -0.24902579 0.19641456
0.1523574 -0.122660786 -0.015850663 -0.16588554 -0.16437122 0.0051592886 -0.19658998 0.045573145
0.14463335 -0.20729652 -0.06605476 -0.011954844 0.06930846 -0.025990576 -0.210253 -0.090064734
-0.2483963 -0.038118243 -0.096529335 0.22643438 -0.026922017 0.137781 -0.24346417 -0.044926375
0.17347413 0.14423567 0.057429492 -0.15542576 0.11553112 0.22910681 -0.017258227 0.13595822
-0.16931596 0.09923598 0.020552516 0.21668515 0.13526854 0.23610112 -0.04343921 -0.005644828
-0.03091371 -0.032877535 -0.20207152 -0.17142653 -0.072297215 -0.17230141 -0.2343531 -0.11979535
0.012737572 -0.24585533 0.062496394 0.2454504 -0.083099306 -0.14366418 0.17029402 0.013121575
0.10691941 -0.18227783 -0.171345 -0.093957156 -0.21484578 -0.08936769 -0.05543247 0.09756291
0.042336613 -0.20735613 0.016492903 -0.084489286 0.083543 0.17838448 -0.15295535 -0.03380087
0.04732114 0.16763443 -0.10791466 0.23057956 -0.2096453 0.20175648 -0.0025384128 0.19088656
0.23077413 -0.1060372 -0.10786793 0.14849764 -0.16391832 0.013379395 0.013123125 -0.18832985
-0.189322 0.17852429 0.07417345 0.00018644333 -0.12352902 -0.24853164 0.099509984 -0.17111424
-0.16172063 -0.04364994 0.02533272 -0.04099214 -0.00527215 0.21618944 0.21652862 0.16312319
0.0060317516 0.2015993 -0.016212493 0.19486701 0.10429779 -0.09164995 0.024250597 0.107375234
-0.11434713 -0.034019142 -0.05925995 0.06711471 -0.09352279 -0.039675027 -0.01881525 0.0037807822
0.043111056 -0.08053926 0.052280992 -0.2419874 -0.0669601 0.19433165 0.028331667 -0.012348443
-0.031330228 -0.16834894 0.012619466 0.18335044 0.0661498 -0.20761395 -0.09731552 -0.071620464
0.18399033 -0.08158654 0.1045275 -0.07728633 -0.0021075606 -0.23448354 -0.003213942 -0.2414091
0.13149509 -0.23160529 -0.21354955 0.06844452 -0.037539095 0.16757649 0.1529144 0.02668655
-0.06862387 0.1748214 0.032544225 0.22087565 0.07375422 -0.20661223 -0.20134926 0.08244467
-0.031870008 0.21185851 -0.15692312 0.10654947 0.13089824 0.14620498 0.07485294 -0.13238072
0.22227332 0.047707826 -0.034209788 0.1781067 0.0007311404 -0.033765912 -0.025973976 0.15260702
-0.03675756 0.1986379 0.08093268 0.12933767 -0.18652728 0.1332503 0.18865797 0.015411586
0.015905589 -0.028501809 -0.11881074 -0.12738007 0.20720243 -0.13492978 -0.18393603 -0.06694263
0.044533223 0.19653094 -0.2093558 -0.02495274 -0.024801075 0.0298706 -0.17277852 -0.21876764
-0.17211163 0.24735463 -0.10923034 0.18856168 -0.009569198 0.17951787 -0.17241794 0.08499506
-0.067909956 -0.06283221 -0.15478149 0.07507837 -0.16581583 -0.17638105 0.08535203 -0.09209126
0.053027302 0.15638334 0.23832026 0.23754722 0.15999898 0.037846982 0.21594122 0.20675677
-0.0005657077 -0.014329553 0.047357857 -0.10342428 -0.055727184 0.16494453 -0.2098946 0.054516196
-0.13507205 0.13832936 0.21243146 0.22619107 -0.23176739 -0.14076939 -0.13297895 -0.24895585
00000000: 188e 483d a8ca 303e e28f 643e 5c5a d0bd
00000010: 4021 e23b 68cf 933d 1051 4c3e 5ac9 78be
00000020: 40ab 203d 82a2 41be 6010 563e b4dd b83d
00000030: 5697 19be 8899 46be 9e00 7fbe e620 493e
00000040: 9403 1c3e 9435 fbbd 40d9 81bc e6dd 29be
00000050: ee50 28be 400f a93b e24e 49be e8aa 3a3d
00000060: c41a 143e 8a45 54be b847 87bd 40de 43bc
00000070: 98f1 8d3d 30ea d4bc 904c 57be dc73 b8bd
00000080: 9a5b 7ebe e021 1cbd 2cb1 c5bd 6ade 673e
00000090: 908b dcbc 7616 0d3e ac4e 79be b804 38bd
000000a0: 34a3 313e 84b2 133e 303b 6b3d ee27 1fbe
000000b0: 949b ec3d fa9a 6a3e 2061 8dbc a238 0b3e
000000c0: 2a61 2dbe 3c3c cb3d c05d a83c b6e2 5d3e
000000d0: d683 0a3e 7ec4 713e 50ed 31bd 40f8 b8bb
000000e0: c03e fdbc 98aa 06bd d6eb 4ebe 708a 2fbe
000000f0: 9010 94bd c86f 30be 42fa 6fbe 4457 f5bd
00000100: 40b1 503c 80c1 7bbe 38fc 7f3d 5a57 7b3e
00000110: f82f aabd b41c 13be 8e61 2e3e e0fb 563c
00000120: 90f8 da3d 0aa7 3abe 1075 2fbe 9c6c c0bd
00000130: 8800 5cbe 6806 b7bd 280d 63bd 10cf c73d
00000140: 2869 2d3d 2a55 54be 201c 873c b808 adbd
00000150: 9818 ab3d 6caa 363e 54a0 1cbe c872 0abd
00000160: d0d3 413d 5ca8 2b3e 5c02 ddbd 0c1d 6c3e
00000170: 42ad 56be 4099 4e3e 805b 26bb c477 433e
00000180: 0e50 6c3e 082a d9bd dce9 dcbd c40f 183e
00000190: 34da 27be 4035 5b3c 6002 573c 8ad9 40be
000001a0: a0dd 41be 12cf 363e 40e8 973d 0080 4339
000001b0: c8fc fcbd 147f 7ebe e4cb cb3d 9238 2fbe
000001c0: 189a 25be 48ca 32bd 9086 cf3c 60e7 27bd
000001d0: 00c2 acbb c460 5d3e aeb9 5d3e c409 273e
000001e0: 00a6 c53b 0c70 4e3e 10d0 84bc 388b 473e
000001f0: 149a d53d f8b2 bbbd 30a9 c63c 8ce7 db3d
00000200: d42e eabd a857 0bbd 90ba 72bd 7073 893d
00000210: e088 bfbd 4882 22bd 7022 9abc 00c7 773b
00000220: 3895 303d c4f1 a4bd 9824 563d 8ccb 77be
00000230: 6022 89bd e0fe 463e d017 e83c 2051 4abc
00000240: 2054 00bd aa63 2cbe e0c1 4e3c 38c0 3b3e
00000250: 8c79 873d c098 54be 5c4d c7bd c0ad 92bd
00000260: f667 3c3e d816 a7bd 8412 d63d 4c48 9ebd
00000270: 001f 0abb 741c 70be 00a1 52bb f233 77be
00000280: a6a6 063e f029 6dbe bcac 5abe a42c 8c3d
00000290: 98c2 19bd 2c99 2b3e 9895 1c3e c09d da3c
000002a0: ac8a 8cbd 6204 333e 184d 053d 3a2d 623e
000002b0: 740c 973d 2892 53be 802e 4ebe c0d8 a83d
000002c0: 208a 02bd 70f1 583e 74b0 20be 9c36 da3d
000002d0: 300a 063e c2b6 153e 804c 993d d08e 07be
000002e0: 9e9b 633e 4869 433d 901f 0cbd 9a61 363e
000002f0: 00aa 3f3a 204e 0abd 60c7 d4bc 0445 1c3e
00000300: 188f 16bd bc67 4b3e 08c0 a53d 1871 043e
00000310: 0201 3fbe c472 083e 8e2f 413e e080 7c3c
00000320: 704c 823c a07c e9bc 0c53 f3bd ec6f 02be
00000330: e02c 543e 082b 0abe ba59 3cbe 3819 89bd
00000340: 7868 363d 683f 493e 5e61 56be b069 ccbc
00000350: a02b cbbc 30b3 f43c daec 30be a004 60be
00000360: 083e 30be 884a 7d3e 28b4 dfbd 5016 413e
00000370: 20c8 1cbc 88d3 373e 548e 30be e411 ae3d
00000380: 6014 8bbd 2cae 80bd 0a7f 1ebe b0c2 993d
00000390: a0cb 29be 3c9d 34be 0ccd ae3d 589a bcbd
000003a0: 2833 593d f422 203e 3a0a 743e 943f 733e
000003b0: c6d6 233e 7005 1b3d b21f 5d3e 0cb8 533e
000003c0: 004c 14ba 80c6 6abc 50fa 413d 1cd0 d3bd
000003d0: 3042 64bd 38e7 283e 9cee 56be 604c 5f3d
000003e0: 5450 0abe 36a6 0d3e a287 593e a29e 673e
000003f0: 6e54 6dbe da25 10be a22b 08be 48ee 7ebe

bias f4 [16]
-0.10636997 -0.009468973 -0.2380135 -0.09254646 -0.043176144 -0.21109423 0.03680402 -0.1407572
0.12031326 -0.07777494 0.24290583 0.05790937 -0.20097098 0.23597434 0.053232223 -0.21438009
00000000: 80d8 d9bd c023 1bbc d0b9 73be 0089 bdbd
00000010: 78d9 30bd 1629 58be d0bf 163d a822 10be
00000020: cc66 f63d 7848 9fbd 4ebc 783e 6032 6d3d
00000030: 56cb 4dbe 42a3 713e 080a 5a3d 7486 5bbe
