results/models/model_expID_1_dfID_48.pth (torch, 32906 bytes, 3 tensors)

weights f4 [4, 3]
-3.4263582 -2.274862 6.0095263 -0.55813646 -2.4125826 -2.9672866 -5.1931353 -1.0131987
-6.08325 0.3489027 4.6344957 -2.1257367
00000000: 7449 5bc0 5797 11c0 0a4e c040 08e2 0ebf
00000010: c167 1ac0 06e8 3dc0 2a2e a6c0 7fb0 81bf
00000020: fca9 c2c0 60a3 b23e ca4d 9440 120c 08c0

weight f4 [16, 16]
0.01746127 -0.1505984 0.07960585 0.07844514 -0.13361922 -0.037469298 -0.14645699 0.06486818
-0.06734192 0.17563418 0.17747158 0.025467604 -0.106580496 -0.1468403 -0.027454913 -0.070357025
0.11019021 -0.21347404 0.23495981 -0.19610673 0.1914388 -0.04341364 0.12859723 0.09742376
0.010465026 0.0466156 0.18985209 0.06429455 0.13263685 -0.19338971 0.17797145 0.086042285
0.063325286 0.034536332 0.121866375 0.2296083 -0.055629015 -0.13927677 -0.06289896 -0.15237093
0.120262 -0.12356004 -0.13342476 0.21570688 0.22876906 0.028753549 -0.043290675 -0.032271206
0.11843121 -0.23344475 -0.2043111 0.199702 0.24681005 -0.014856249 -0.19753814 0.0068307817
-0.116304874 -0.00048062205 0.12236595 0.11066866 -0.029316247 0.027523965 0.06803408 -0.19595587
-0.08475983 0.009788394 -0.1426523 -0.10918358 0.083969414 0.14388207 0.0035029352 -0.09724617
0.13688079 -0.13704279 -0.058680803 0.23584259 0.046043128 0.017615318 0.08427873 -0.06096351
0.21389493 -0.20390412 -0.068769366 -0.043216854 -0.10286823 -0.061875314 0.15493831 0.1371735
0.013900876 0.21779689 -0.17651269 -0.1490747 0.11295408 -0.01343748 -0.22782215 -0.17304012
-0.1521922 0.1930528 0.11321637 0.19340226 -0.18612283 -0.24374142 -0.16394275 0.026745379
-0.049376816 -0.15754345 0.18199357 -0.08062139 -0.14459437 0.11547992 -0.06735945 0.15937841
0.059580714 0.0061677396 0.05248192 -0.1878545 -0.13376391 -0.11749831 -0.14146096 0.044331014
0.049945712 -0.10387361 0.16297308 -0.13909924 0.050472707 -0.07138649 -0.21685687 -0.16278696
0.102119565 0.09893164 -0.15458846 -0.077958286 -0.23371142 0.13438576 0.21617255 0.081756085
-0.1546872 0.13186494 0.20747143 -0.0511463 -0.040981203 0.08652964 0.03216207 -0.08262789
-0.23209146 -0.17529973 0.013538599 -0.013410866 0.2064411 0.008556038 -0.06437093 -0.24427351
-0.22985709 0.103850216 0.22267553 -0.0037932098 -0.22345036 0.08875987 0.20361915 -0.16546333
-0.06582105 0.021025926 -0.14257309 -0.23181066 0.10944444 -0.20514488 -0.06275189 -0.1327458
0.18800992 0.048270285 0.11593664 -0.16929227 0.21067739 0.02227503 -0.13865867 -0.016354263
-0.17701393 -0.011539817 0.13960221 -0.11238584 0.2113182 0.07633144 -0.04374644 0.07809463
-0.0460563 -0.05810401 -0.16401893 0.1456703 0.15007332 0.08560109 0.1478566 0.24976128
0.23540255 -0.24125943 0.057005197 -0.021405488 0.084889084 -0.048484683 0.06977734 -0.23002398
0.11426476 0.2401832 -0.044959843 -0.19885659 -0.207818 -0.047959656 -0.0037816465 0.027882516
0.03136763 0.18830764 -0.04535508 0.07134399 -0.13286617 0.24588558 0.09593561 -0.034671426
0.16433942 0.088496596 0.042874455 -0.07380083 0.03143564 0.017873585 -0.14606354 0.0035774112
0.05459258 -0.14807764 0.044656605 -0.08298248 -0.20799068 -0.14972222 -0.19841337 0.057857662
0.15292463 0.22728196 0.24512577 0.09846845 0.122275084 -0.04263404 0.20666984 -0.09557971
-0.06793475 -0.08320272 -0.16758838 -0.19267613 -0.050963014 0.20205238 -0.124540985 -0.226964
-0.057120264 0.22653481 0.060298443 -0.015802652 -0.07146531 0.21950966 -0.24022648 0.14166096
00000000: f00a 8f3c 7836 1abe 6408 a33d d8a7 a03d
00000010: 7ad3 08be 6879 19bd d2f8 15be 9cd9 843d
00000020: 90ea 89bd 72d9 333e 1cbb 353e 70a1 d03c
00000030: e046 dabd 4e5d 16be 20e9 e0bc 5817 90bd
00000040: 68ab e13d f098 5abe 4e99 703e 34d0 48be
00000050: 8808 443e 80d2 31bd feae 033e 1c86 c73d
00000060: 8075 2b3c 00f0 3e3d 9668 423e dcac 833d
00000070: f4d1 073e f407 46be 263e 363e f036 b03d
00000080: b0b0 813d f875 0d3d 1495 f93d 701e 6b3e
00000090: 40db 63bd 929e 0ebe 2cd1 80bd 2007 1cbe
000000a0: ec4b f63d 0c0d fdbd 80a0 08be 44e2 5c3e
000000b0: 7042 6a3e 908c eb3c 9051 31bd d02e 04bd
000000c0: 108c f23d 240c 6fbe ee36 51be ae7e 4c3e
000000d0: c6bb 7c3e a067 73bc 7047 4abe c0d4 df3b
000000e0: 4031 eebd 00fc fbb9 009b fa3d 40a6 e23d
000000f0: a028 f0bc f079 e13c 7455 8b3d a8a8 48be
00000100: 9096 adbd 805f 203c 7213 12be a49b dfbd
00000110: 28f8 ab3d d255 133e 8091 653b 0029 c7bd
00000120: 7a2a 0c3e f254 0cbe 485b 70bd b880 713e
00000130: b897 3c3d 004e 903c 549a ac3d e0b4 79bd
00000140: 4607 5b3e 3ecc 50be f4d6 8cbd 2804 31bd
00000150: 94ac d2bd f870 7dbd 26a8 1e3e 3677 0c3e
00000160: 80c0 633c 2606 5f3e bebf 34be 0aa7 18be
00000170: 7854 e73d e028 5cbc 364a 69be 6e31 31be
00000180: 46d8 1bbe a2af 453e fcdd e73d 3e0b 463e
00000190: fc96 3ebe 5a97 79be 9ce0 27be 2019 db3c
000001a0: 583f 4abd 1253 21be 865c 3a3e d41c a5bd
000001b0: 8c10 14be bc80 ec3d c0f3 89bd 1834 233e
000001c0: e80a 743d c01a ca3b 48f7 563d ee5c 40be
000001d0: 68f9 08be f4a2 f0bd 24db 10be 7094 353d
000001e0: e093 4c3d b0bb d4bd 6ae2 263e 0870 0ebe
000001f0: 78bc 4e3d 1433 92bd ba0f 5ebe a0b1 26be
00000200: 1024 d13d ac9c ca3d 704c 1ebe 98a8 9fbd
00000210: 0c52 6fbe 6c9c 093e 565c 5d3e bc6f a73d
00000220: 5266 1ebe 9a07 073e 6473 543e c87e 51bd
00000230: e8db 27bd 7436 b13d 60bc 033d d038 a9bd
00000240: 62a9 6dbe c681 33be 00d1 5d3c 40b9 5bbc
00000250: 4c65 533e a02e 0c3c e8d4 83bd d622 7abe
00000260: a85f 6bbe 6caf d43d 0e05 643e 8097 78bb
00000270: 2cd0 64be bcc7 b53d 8a81 503e 386f 29be
00000280: 30cd 86bd 903e ac3c aefe 11be c65f 6dbe
00000290: 6824 e03d 8011 52be 1084 80bd 84ee 07be
000002a0: ac85 403e 10b7 453d 3070 ed3d f45a 2dbe
000002b0: d0bb 573e 207a b63c 8afc 0dbe 60f9 85bc
000002c0: 2443 35be 8011 3dbc e2f3 0e3e 8c2a e6bd
000002d0: cc63 583e a853 9c3d 782f 33bd 14f0 9f3d
000002e0: 88a5 3cbd 78fe 6dbd 94f4 27be 982a 153e
000002f0: d2ac 193e a04f af3d b867 173e 6cc1 7f3e
00000300: 5e0d 713e b60c 77be 487e 693d 905a afbc
00000310: 54da ad3d e097 46bd 6ce7 8e3d 688b 6bbe
00000320: a403 ea3d 96f2 753e d027 38bd 10a1 4bbe
00000330: 3ece 54be 5871 44bd 80d5 77bb e069 e43c
00000340: 587b 003d b8d3 403e 40c6 39bd cc1c 923d
00000350: 120e 08be 6ec9 7b3e e479 c43d a003 0ebd
00000360: 9848 283e b43d b53d 209d 2f3d e424 97bd
00000370: a8c2 003d a06b 923c ae91 15be 0073 6a3b
00000380: 789c 5f3d aaa1 17be d8e9 363d b8f2 a9bd
00000390: 82fb 54be c850 19be e02c 4bbe 28fc 6c3d
000003a0: 4698 1c3e 9abc 683e 4002 7b3e d4a9 c93d
000003b0: 5c6b fa3d 08a1 2ebd 42a1 533e 4cbf c3bd
000003c0: 6021 8bbd 3066 aabd 4a9c 2bbe e44c 45be
000003d0: 98be 50bd d2e6 4e3e 580f ffbd 4069 68be
000003e0: f0f6 69bd bef8 673e 80fb 763d 9074 81bc
000003f0: 685c 92bd 24c7 603e eefd 75be 920f 113e

bias f4 [16]
0.06787911 0.15671793 -0.1449 -0.081970185 -0.10506347 0.24258083 -0.0322814 -0.23838663
0.12535551 0.048202068 0.03420967 -0.16671273 -0.23419318 0.22653064 -0.18828586 -0.047505796
00000000: 3404 8b3d aa7a 203e aa60 14be fcdf a7bd
00000010: 842b d7bd 1c67 783e 8039 04bd a01b 74be
00000020: 325d 003e 886f 453d 701f 0c3d beb6 2abe
00000030: 56d0 6fbe a6f7 673e 02ce 40be 7095 42bd
