results/models/model_expID_1_dfID_10.pth (torch, 21450 bytes, 3 tensors)

weights f4 [4, 9]
00000000: e9a2 bec0 84c3 1f3f 3911 50bf 8916 80bf
00000010: ed73 08c0 2189 6dc0 c8d8 bf3f 9520 21c0
00000020: 5487 3bc0 ddd7 c23f ed7f bb3e b2f1 92c0
00000030: 07b9 2e3e dcc9 7dc0 eb7a 6540 8757 8e40
00000040: 0152 94bd 535c 8b40 da08 a9c0 5303 873d
00000050: 05cf aec0 d53a 67bf 9b3e a2c0 89ed 95c0
00000060: 499d 9b3f ae5a 5cc0 780e 9ec0 6ff1 60c0
00000070: c28d f1bf 3641 cfbe 51df 6fc0 f5d7 e13f
00000080: 53db 59be 98c5 863d c2ee b5bf 4228 6c40
-5.9573865 0.6240771 -0.8127628 -1.0006877 -2.1320755 -3.7114947 1.4988031 -2.5176136
-2.9301348 1.5222126 0.36621037 -4.592004 0.1706277 -3.9654455 3.5856273 4.4481845
-0.072422035 4.35502 -5.2823305 0.06592431 -5.462771 -0.90324146 -5.0701423 -4.685246
1.2157375 -3.4430346 -4.939266 -3.514736 -1.8871386 -0.4047944 -3.7480052 1.764403
-0.21275072 0.06580657 -1.4213488 3.6899571

weight f4 [16, 16]
00000000: 40e5 6a3d 88af 73bd b467 8c3d 0037 51bc
00000010: 58b8 da3d 58c9 733d e062 ebbc 6af7 4ebe
00000020: 40cb 693d f2a5 62be 1095 063d 101b 883c
00000030: 082d 61bd 9654 513e 50ad 883c bc50 d43d
00000040: fcac d83d c205 17be 98d4 c4bd 2833 763e
00000050: 08bf 7abe c018 8bbc b04d a2bc 4e95 353e
00000060: d0b3 c2bc 98d1 863d 809f 44bc ac58 0fbe
00000070: 2a19 11be 34bf f8bd 328d 68be b423 26be
00000080: 50ff 703d 427c 283e 40c7 493c 10b2 eabd
00000090: fc03 e13d f48a c4bd d8d5 62bd 5057 0cbe
000000a0: f0c4 a0bd a435 6dbe 1877 da3d 7c15 c73d
000000b0: 9866 4b3d e461 fb3d 7c00 d93d 4038 353c
000000c0: 00e5 d83c 4063 9c3c dc99 083e 98f7 2b3e
000000d0: 64d8 373e 0861 143e 30a9 79bd 2058 36bc
000000e0: 8819 50bd 62ec 143e 7072 e33c feef 6c3e
000000f0: 5cd7 013e f0ca 5abe c8c6 953d dafb 753e
00000100: f463 633e 40bc 80bb a4db a93d 2624 70be
00000110: e039 a3bd dcab f93d de34 69be 2c07 5f3e
00000120: 105a 28be e8e7 a13d 6011 1bbc 4872 343d
00000130: 906b c63c 2e51 6fbe 90f4 5bbd 08d2 21be
00000140: b4a3 593e 2064 fbbc 5ae7 7ebe 0003 783d
00000150: ac58 de3d 8033 e5bd 601e c0bc c857 dd3d
00000160: f048 1fbe 6853 07be 2090 c5bc ecc6 33be
00000170: 5056 1d3e 2082 a73c 782a 193e 120d 093e
00000180: 144a 45be 3690 1fbe 7419 2fbe a88e a4bd
00000190: e818 bbbd 68ff 24bd 90a7 77be 4837 d83d
000001a0: 023b 113e 1045 a23d 50ad 223e a250 403e
000001b0: 86b7 7cbe 30ae 1a3d f277 6d3e 0687 39be
000001c0: 6cf8 e3bd e0b3 57bc dc40 1fbe 6001 41bd
000001d0: 3051 17bd ae16 643e a0c6 80bc 56d2 0a3e
000001e0: 6876 3b3e 941b e43d 6ca0 5ebe 90df 3f3e
000001f0: b4d1 283e 3a84 37be 9490 b6bd c03d 2e3e
00000200: e0db 78be 1660 60be 9281 2dbe ec89 9f3d
00000210: ac15 d1bd aa4f 64be 7477 c63d a07d 013e
00000220: a0c6 bf3d 7455 5bbe 9445 793e b085 9abc
00000230: 8aa7 73be 7827 1abd 1e35 273e 78ca eb3d
00000240: 8019 2fbb 3478 343e b291 69be d69f 313e
00000250: 7e1e 7e3e 22aa 1bbe a0a4 5b3d 6820 25bd
00000260: d41c 58be 80a2 0fbb 3c95 abbd 38a9 5abe
00000270: 0c8a 3abe c0bf b23b 3654 6d3e 0050 b73d
00000280: 8453 2abe 5093 303e a01b a83c 1626 7abe
00000290: 804b 423c 4856 243e 8287 16be a076 3cbc
000002a0: 4816 ffbd 9cdb 49be 6e76 11be 70a8 cd3c
000002b0: 627b 253e 3848 3ebd 5c39 66be 803f 0cbb
000002c0: 62a6 5ebe 609b 703c dccd 3d3e 8083 da3d
000002d0: 3294 1cbe 78fe 61bd a004 cd3d b0e5 8a3d
000002e0: a477 70be 8a40 15be dc12 b5bd ac27 bc3d
000002f0: 9cbc 643e 7827 e43d b869 c13d 423b 59be
00000300: 40a6 253e dc5d b73d c0a3 a4bd aca9 f5bd
00000310: ac8e 913d 8cc3 0abe 88d7 cf3d 2ac8 433e
00000320: 2cea 28be 9eb0 1fbe 04b5 d4bd 5a2e 5bbe
00000330: 30e0 eabc b872 1f3e cca0 bf3d 7cfe a4bd
00000340: 803f febc 54a6 debd 54a7 4ebe a0be 8bbd
00000350: f056 8d3c ead2 01be fec9 3fbe ac8e 953d
00000360: 28d6 163d 1443 9fbd fc30 8c3d 0e99 6c3e
00000370: 00aa 5f3c 2e75 2fbe b8ba 6c3e 9e39 383e
00000380: 6078 c3bc bc45 e7bd 6c09 d8bd 723a 5f3e
00000390: 3ebb 053e bca5 03be 007a 233c 5009 523d
000003a0: c058 873d 80bb 67bc d4fb 05be 40fb fbbb
000003b0: 846e 8dbd bce1 abbd 4ccf fdbd e042 f8bd
000003c0: 6c43 f1bd 24c0 c93d d66e 58be b87c 73be
000003d0: e4f5 5a3e 9cce b73d d097 0d3e 9c57 df3d
000003e0: b44a c3bd 0ac8 20be 4c81 2ebe c03d 81bc
000003f0: 40f9 7d3d 34cd 6fbe da8f 44be 7019 103e
0.057347536 -0.05949357 0.06855717 -0.012769461 0.10679692 0.05951819 -0.02873367 -0.20211568
0.0570786 -0.22133616 0.032857 0.016614467 -0.054974586 0.20442423 0.016684204 0.10366961
0.10579869 -0.1474829 -0.096108615 0.24042952 -0.24486935 -0.016979575 -0.019812435 0.17732736
-0.023767382 0.065829456 -0.012000918 -0.1399867 -0.14169756 -0.12145844 -0.22710112 -0.16224557
0.058837235 0.1645365 0.012315571 -0.11459744 0.10987088 -0.09596816 -0.05537972 -0.13705182
-0.07850063 -0.23164994 0.106672466 0.09720895 0.049658388 0.122745305 0.105957955 0.011060774
0.026476383 0.019090295 0.13339943 0.16793668 0.1795364 0.1449014 -0.060952365 -0.011129409
-0.0508056 0.14543298 0.027764529 0.23138425 0.1267981 -0.21366477 0.07313305 0.24021855
0.22206098 -0.003928691 0.08293846 -0.2345129 -0.07970023 0.12190983 -0.22774073 0.2178008
-0.16440606 0.07905561 -0.009464592 0.0440543 0.024221212 -0.23370811 -0.05370003 -0.15802777
0.21253854 -0.030687392 -0.24892941 0.060549736 0.108567566 -0.111914635 -0.023451984 0.108077586
-0.15555167 -0.1321541 -0.024116576 -0.17556351 0.15364957 0.02044779 0.14957607 0.13383892
-0.1926654 -0.15582356 -0.17099553 -0.08035022 -0.0913561 -0.040282637 -0.24185014 0.10557419
0.14182666 0.07923329 0.15886426 0.18780759 -0.24679384 0.037763774 0.23190287 -0.18117914
-0.11131367 -0.013165444 -0.15552086 -0.047120452 -0.03694266 0.22274277 -0.015719712 0.135568
0.18306887 0.111380726 -0.21740884 0.18737626 0.16486245 -0.17921534 -0.08914295 0.17015743
-0.24302626 -0.21911654 -0.16943958 0.077899784 -0.10209212 -0.22296014 0.096907526 0.12645578
0.093640566 -0.21419317 0.24342948 -0.018862575 -0.2379438 -0.037635297 0.16328856 0.11513227
-0.002671808 0.17623979 -0.22809485 0.17346129 0.2481632 -0.1520162 0.053623796 -0.040314108
-0.21104747 -0.0021916926 -0.083780736 -0.21353614 -0.18216723 0.0054549873 0.23176655 0.08950806
-0.16633421 0.17243695 0.020520985 -0.24428591 0.011858821 0.16048539 -0.1470013 -0.011502892
-0.12455422 -0.1971268 -0.14205334 0.025104731 0.16160348 -0.046455592 -0.22482818 -0.0021400154
-0.21743158 0.014685482 0.1853556 0.10669613 -0.15290907 -0.05517432 0.10010648 0.06782091
-0.2348314 -0.14575401 -0.08841488 0.09187254 0.22337574 0.111403406 0.094439924 -0.21214011
0.161767 0.08953449 -0.08039045 -0.11995253 0.071072906 -0.13551158 0.10148531 0.19119325
-0.1649558 -0.15594718 -0.103860885 -0.214044 -0.028671354 0.15571105 0.093568414 -0.080563515
-0.031036139 -0.10871568 -0.20181018 -0.06823468 0.01725337 -0.12678114 -0.18729398 0.07302603
0.03682533 -0.07776466 0.068452805 0.2310526 0.013651371 -0.17134544 0.23118103 0.17990729
-0.02386111 -0.11292598 -0.10548672 0.21799639 0.13059708 -0.12856191 0.009977818 0.051278412
0.066087246 -0.014143825 -0.13084346 -0.0076898634 -0.06905845 -0.08392665 -0.12393054 -0.121221304
-0.11780438 0.09851101 -0.2113603 -0.23778045 0.21382862 0.089749545 0.13827443 0.10905382
-0.09535733 -0.15701309 -0.1704151 -0.015776515 0.06200528 -0.23418123 -0.191955 0.14072204

bias f4 [16]
00000000: 404c 033d f8da 283e 9c05 643e ea9e 1b3e
00000010: 789e 59bd 34cf e3bd cce1 903d 363f 503e
00000020: 7a6e 75be 3c71 893d fc58 45be d485 4bbe
00000030: 1444 b93d 0a39 023e 484b af3d 94e5 943d
0.03205514 0.1648978 0.22267765 0.1519734 -0.053129643 -0.11123505 0.07074317 0.20336613
-0.23967925 0.06711051 -0.19272226 -0.1987527 0.09046188 0.12717071 0.08559281 0.07270351
