results/models/model_expID_1_dfID_20.pth (torch, 13066 bytes, 3 tensors)

weights f4 [4, 1]
-5.39443 4.2719254 -4.7585254 0.8709918
00000000: 2c9f acc0 9db3 8840 d745 98c0 52f9 5e3f

weight f4 [16, 16]
-0.24786824 -0.19721532 -0.10707876 -0.23652259 -0.01419282 -0.21994185 0.13593292 0.121849686
0.047210604 0.19392833 -0.024484336 0.14974532 -0.17507955 -0.049265593 -0.22291154 -0.020297378
-0.16219738 0.22459143 0.17365932 0.18742812 0.07415521 -0.14262113 0.2246525 -0.24394566
-0.1595614 -0.15614241 -0.10362765 0.04984933 -0.18937236 -0.1926021 -0.11956018 0.15258595
-0.18031895 -0.22422406 -0.2166771 -0.123021305 -0.06568703 -0.24783778 -0.11704689 0.0048094094
0.04121104 -0.035839736 -0.0283463 -0.16264358 0.1280765 -0.06022623 -0.1709292 -0.060206085
-0.034926385 0.23115143 0.13028952 -0.1009469 -0.035467952 0.22091734 0.16060919 0.062333614
-0.08967909 0.20801923 0.10710758 -0.11134374 0.17741477 0.017818183 -0.18488914 -0.110809326
-0.18723488 -0.20706245 0.0061116815 -0.17915761 0.13323781 0.111806065 0.053777456 0.2059915
-0.11340502 0.003728062 0.15361777 0.08641571 0.03028968 0.20904878 0.05697635 0.1682078
-0.21545061 -0.21542767 -0.22564858 0.014151901 0.21215427 -0.218171 0.099475 -0.2206203
-0.16614103 -0.085250884 -0.1016593 0.07384205 -0.20962858 0.24722248 0.036446154 0.08715281
-0.16887882 0.1379652 -0.05837348 -0.12438545 0.042523533 0.10404676 0.02647543 -0.087465376
0.046486884 -0.09673154 -0.08464095 -0.09288037 0.14894825 -0.1747436 0.108555675 0.12957871
-0.16611212 -0.18988872 -0.16648352 -0.21148157 0.20989403 0.22036582 -0.034906685 0.2344203
0.070815206 -0.2452518 -0.22874495 -0.120719284 -0.24937102 -0.11469102 0.067614794 -0.0056064427
-0.0466834 0.01535511 0.22856665 0.0027163327 0.12570289 -0.060257465 -0.18754604 0.048902392
0.115134 0.1453645 -0.23522153 -0.033105254 -0.24087876 0.003062725 0.011038303 0.08136213
-0.085790515 -0.0365206 0.061341643 -0.24215713 0.12296352 0.24166536 -0.1779139 0.24379641
0.037953585 0.24735028 0.21893123 -0.21404925 0.18820706 0.008552134 0.06335604 -0.0907211
-0.20038551 0.023923844 0.06954962 0.12572357 -0.2097024 -0.24190843 0.11895937 -0.05005023
-0.0036919713 -0.064866185 0.000518173 0.041279048 -0.23088285 0.09220794 0.027493805 0.11543369
-0.12911236 0.18193328 0.16671169 -0.12555265 0.21889576 0.032174736 0.22071394 0.22724938
0.039208055 0.0404284 0.07829738 0.16055149 -0.22828448 0.0015722215 0.23883355 -0.17651722
-0.14080733 0.02614361 0.090394855 0.13428131 0.014105439 0.05897495 -0.11328605 0.23683098
-0.16474599 0.16257718 0.13571194 0.21833897 0.22189751 -0.082962096 0.17859018 -0.18244722
0.17434204 -0.15389144 -0.16992578 -0.16919202 0.24323106 0.07386768 -0.17422408 -0.18754888
0.0258528 -0.053922713 0.06512964 0.15733808 -0.1579394 -0.2270397 0.02575779 0.16667715
0.15217847 -0.0035846531 -0.06668675 0.079707116 0.17382908 -0.21534851 -0.023671389 0.18902305
0.19260776 0.23151651 0.09653625 0.24685937 -0.24175408 0.047312617 0.035942405 0.17241639
0.049788743 0.16011798 -0.21935984 -0.027086645 0.09371397 0.16033974 0.05922219 0.16152775
-0.07809451 -0.021523535 0.23455998 0.16672638 0.1755375 -0.21667632 -0.0033693314 -0.21726346
00000000: 2cd1 7dbe d0f2 49be 1c4c dbbd fa32 72be
00000010: 0089 68bc 7038 61be 0032 0b3e 548c f93d
00000020: e85f 413d 2695 463e 6093 c8bc d656 193e
00000030: 0e48 33be b8ca 49bd ec42 64be b046 a6bc
00000040: 1217 26be 4cfb 653e c0d3 313e 28ed 3f3e
00000050: b0de 973d 460b 12be 4e0b 663e e4cc 79be
00000060: 1064 23be cce3 1fbe bc3a d4bd d02e 4c3d
00000070: d4ea 41be 7c39 45be f8db f4bd 7e3f 1c3e
00000080: 88a5 38be fe9a 65be 9ae0 5dbe 98f2 fbbd
00000090: ec86 86bd 30c9 7dbe 48b6 efbd 4098 9d3b
000000a0: e8cc 283d b0cc 12bd 8036 e8bc 0a8c 26be
000000b0: 7c26 033e c8af 76bd 1008 2fbe a89a 76bd
000000c0: f80e 0fbd f6b2 6c3e 9e6a 053e 40bd cebd
000000d0: d846 11bd 2838 623e bc76 243e 8851 7f3d
000000e0: aca9 b7bd fe02 553e 385b db3d 3008 e4bd
000000f0: 38ac 353e 70f7 913c 9453 3dbe 00f0 e2bd
00000100: 80ba 3fbe 2e08 54be 8044 c83b 1875 37be
00000110: 7e6f 083e 94fa e43d c045 5c3d 70ef 523e
00000120: e440 e8bd 8052 743b fa4d 1d3e b8fa b03d
00000130: 1022 f83c e210 563e 0860 693d aa3e 2c3e
00000140: 169f 5cbe 1299 5cbe 6c10 67be 60dd 673c
00000150: f83e 593e 3868 5fbe 8cb9 cb3d 4aea 61be
00000160: e020 2abe 0498 aebd c032 d0bd 803a 973d
00000170: e0a8 56be e427 7d3e 9048 153d 2c7d b23d
00000180: 92ee 2cbe c046 0d3e 0819 6fbd ccbd febd
00000190: 282d 2e3d 7816 d53d 00e3 d83c 0c21 b3bd
000001a0: 0869 3e3d 301b c6bd 3c58 adbd 1038 bebd
000001b0: e485 183e fcef 32be 7052 de3d 48b0 043e
000001c0: 4c19 2abe 3072 42be a87a 2abe a08e 58be
000001d0: 76ee 563e 94a7 613e 50fa 0ebd e00b 703e
000001e0: 9007 913d 4a23 7bbe 1e3c 6abe ac3b f7bd
000001f0: 1e5b 7fbe 20e3 eabd a079 8a3d 40b6 b7bb
00000200: 1837 3fbd 0094 7b3c 600d 6a3e 8004 323b
00000210: 42b8 003e 88d0 76bd 120c 40be e04d 483d
00000220: 60cb eb3d 6eda 143e eadd 70be 6099 07bd
00000230: eca8 76be 00b8 483b 00da 343c 30a1 a63d
00000240: f0b2 afbd a096 15bd 6041 7b3d 0af8 77be
00000250: 4cd4 fb3d 2077 773e 102f 36be c4a5 793e
00000260: 3875 1b3d 6449 7d3e 822f 603e ba2f 5bbe
00000270: 5ab9 403e 401e 0c3c d0c0 813d fccb b9bd
00000280: dc31 4dbe f0fb c33c 0870 8e3d aebd 003e
00000290: 3abc 56be d8b6 77be f8a0 f33d 7801 4dbd
000002a0: 00f5 71bb 90d8 84bd 00d6 073a 3814 293d
000002b0: 8e6c 6cbe 84d7 bc3d b03a e13c 8068 ec3d
000002c0: 0836 04be b84c 3a3e 78b6 2a3e e090 00be
000002d0: 3626 603e a8c9 033d d602 623e 10b4 683e
000002e0: a098 203d 4098 253d 605a a03d 9c67 243e
000002f0: 68c3 69be 0013 ce3a c890 743e eec0 34be
00000300: cc2f 10be 202b d63c f020 b93d 0a81 093e
00000310: 801a 673c b88f 713d 8402 e8bd d283 723e
00000320: 2cb3 28be a27a 263e 12f8 0a3e 4094 5f3e
00000330: 1a39 633e 08e8 a9bd 58e0 363e 72d3 3abe
00000340: b886 323e b895 1dbe 0601 2ebe ac40 2dbe
00000350: 9011 793e f047 973d cc67 32be d00c 40be
00000360: 40c9 d33c 10de 5cbd b062 853d 3c1d 213e
00000370: deba 21be 187d 68be 0002 d33c 6aad 2a3e
00000380: acd4 1b3e 80ec 6abb 1093 88bd 7c3d a33d
00000390: 4000 323e 5284 5cbe 80ea c1bc 428f 413e
000003a0: f83a 453e aa12 6d3e ccb4 c53d b4c8 7c3e
000003b0: 628e 77be e0ca 413d 5838 133d ec8d 303e
000003c0: 48ef 4b3d f8f5 233e de9f 60be d0e4 ddbc
000003d0: 1ced bf3d 1a30 243e f892 723d 8867 253e
000003e0: 04f0 9fbd 2052 b0bc 7e30 703e 52ba 2a3e
000003f0: 1ac0 333e 66e0 5dbe 00d0 5cbb 507a 5ebe

bias f4 [16]
0.22696102 0.20239016 0.13963044 -0.15372685 -0.14251012 -0.16315675 0.092520386 0.20493144
-0.03261307 -0.23558152 -0.054809213 0.03023994 0.014293164 0.13585228 0.07416946 -0.06827131
00000000: 7868 683e 5e3f 4f3e 48fb 0e3e 926a 1dbe
00000010: 2cee 11be 9012 27be 547b bd3d 8cd9 513e
00000020: 4895 05bd 483c 71be a07f 60bd c0b9 f73c
00000030: e02d 6a3c dc1c 0b3e 28e6 973d d4d1 8bbd
