results/models/model_expID_1_dfID_29.pth (torch, 13066 bytes, 3 tensors)

weights f4 [4, 1]
00000000: 7519 a140 f59d 83c0 f000 8f40 1e62 af3f
5.0343575 -4.113032 4.4688644 1.3701818

weight f4 [16, 16]
00000000: a047 f43c e00a f23c 922c 51be 767a 14be
00000010: fe50 7cbe 300d 6cbe ae5c 7c3e 9083 533e
00000020: 90d9 723d 12e3 723e 186f b9bd 0802 12be
00000030: ce3e 5a3e 60f2 58bc f072 423d 6e56 173e
00000040: 6ee7 063e 8e95 12be 6002 c6bd b842 6cbe
00000050: 4076 343c 508f b7bd 30e9 5b3d c08f 3e3c
00000060: d43f 5a3e 4063 b03c 064b 003e 0090 a13d
00000070: 6e21 633e acd7 d4bd 2ac1 553e 929d 373e
00000080: 6859 ccbd faeb 1c3e ccab 6c3e 90bf 10be
00000090: f8b4 c7bd 5c21 2f3e ea6a 4e3e 7810 873d
000000a0: 203a 9d3d 629c 3d3e 845a 603e 8ce8 21be
000000b0: a49a d2bd 408b 573e 5045 0a3e 343c f0bd
000000c0: 58b9 adbd 5a6f 783e be56 20be 40ae 243e
000000d0: fc8c 143e 2684 75be c88c 7fbe 0cf8 a93d
000000e0: c835 fb3d e6ea 623e f06c fc3c c4ac 2d3e
000000f0: 42ef 35be 72cf 183e 029e 76be 64c4 263e
00000100: 1009 de3c e021 1e3e 443f ca3d 4e1a 31be
00000110: 8024 2a3b d885 013d 8035 133d 6824 60be
00000120: d24e 01be 382e f1bd 4426 0bbe 2cfc 593e
00000130: 86cf 103e f8d2 d23d 087d 99bd 6ab5 4fbe
00000140: b8e8 593d 7088 6c3e c8dd e33d 74ae 4ebe
00000150: 9091 b5bc a05d 263c d477 223e 1c4b d83d
00000160: 6e88 34be 5c6c 71be dc06 983d d4f2 f93d
00000170: e6d3 123e e039 303e aa4c 623e 88b8 d5bd
00000180: 6201 79be 90bc fa3d b6ef 763e 8a77 3abe
00000190: 2adf 00be 6630 5b3e 10f2 473e 70e0 c3bc
000001a0: b61e 12be 40ba 3b3d 8abc 7abe 183c cabd
000001b0: 1884 04bd 500e 74bd 9cf7 d23d 0058 ad3b
000001c0: c4b2 49be c0e7 c8bc 6043 be3c 96f4 1f3e
000001d0: 00a1 663c 7088 b2bd 7c68 c73d a0ec eb3d
000001e0: 885c 423d 6477 09be 2480 8a3d e863 123d
000001f0: 6ab4 0f3e f0e4 8bbd 2004 85bc e494 053e
00000200: 280a 08bd 0699 053e e087 24bd 4ed7 603e
00000210: 00ca fbba d001 58bd a088 b13d 8060 4fbc
00000220: c0ed 4c3e e8ad 0fbd d61b 2c3e 2c65 84bd
00000230: 60e9 b33c b00b a63d 0444 70be 5017 453d
00000240: 2236 0b3e 6c20 ca3d 40d8 c83b 408c d3bc
00000250: ac22 a13d 5801 9b3d 04a6 f6bd 3cd8 c73d
00000260: e63a 5bbe 0000 213c d809 b0bd 603a d6bd
00000270: 129f 4fbe ea3b 493e e0a7 bc3c 70d8 8c3c
00000280: 0822 1abd 6854 d4bd 62eb 45be 400f 433d
00000290: 8ab5 47be 301b dbbd 68b0 003e 8033 563e
000002a0: a4a4 a3bd 1c30 7cbe c25c 7a3e 5c95 0a3e
000002b0: 54bf 383e 40c4 3abd 4000 53bd 1043 c83c
000002c0: f89c 7a3d 00bf d33b badd 04be 3cab 643e
000002d0: 041d ef3d d007 b9bc 5413 5abe 242a fcbd
000002e0: d892 b2bd 60cb 2abd 40b3 8d3d c81f 2bbd
000002f0: cc2a b13d ec47 26be c810 60bd a468 e73d
00000300: ac6b 7b3e 1444 58be f0e8 d43c 5232 073e
00000310: d0ef dcbc 5092 6e3d c4d4 1f3e d25e 7ebe
00000320: cc96 173e f2db 64be 483b 3e3d 68f4 1a3e
00000330: 90bd e8bd 80e5 133b 1ac3 75be 0048 7cbc
00000340: 4a43 103e 8030 ff3d 64d4 883d b00d a8bc
00000350: 64c8 d1bd 0a18 503e 2437 973d 282d b63d
00000360: 604e f93d 38b8 90bd 303e 9cbc ba8f 713e
00000370: 4824 653e 8614 7ebe fc77 5abe b421 93bd
00000380: 406b 813d 3af6 05be 58b0 fd3d c8ad 65be
00000390: 7090 f7bc 9803 253e c0b1 82bd 3411 83bd
000003a0: 601e 5e3d 981b 443e d8b4 653d 00fd ca3b
000003b0: 00b6 cabb b4f1 58be 04c6 cabd 9efa 7e3e
000003c0: 4c56 2bbe cc96 f13d 08cb b1bd 1c4a ad3d
000003d0: 6c4c e33d e60b 353e 4eda 1ebe 98ed 01bd
000003e0: 9e81 2ebe 20b0 503d 605a f2bd 3070 ca3c
000003f0: e89c 52be 0021 67bd 1cda 55be 189c 58be
0.02981931 0.029546201 -0.20427158 -0.1449984 -0.24640271 -0.23051906 0.2464473 0.20655656
0.059289515 0.23719433 -0.090543926 -0.14258587 0.2131302 -0.01324138 0.047472894 0.14779064
0.13174221 -0.14314863 -0.09668422 -0.23072326 0.011014521 -0.089628816 0.05368918 0.011630952
0.21313411 0.021531701 0.12528619 0.07888794 0.22180721 -0.10392699 0.20874467 0.17931202
-0.099779904 0.15324393 0.2311241 -0.14135575 -0.09751314 0.1710257 0.20157972 0.06594938
0.07677102 0.18516687 0.21909529 -0.15811366 -0.102834016 0.21049213 0.13503003 -0.11730233
-0.08482617 0.24261227 -0.1565809 0.16082096 0.14506906 -0.23976192 -0.24956048 0.08299264
0.12266117 0.22159919 0.030813664 0.16960436 -0.17767051 0.14922884 -0.24083713 0.16285855
0.02710393 0.1544261 0.09875348 -0.1729519 0.0025961697 0.031621784 0.035939693 -0.21888888
-0.12627724 -0.11776394 -0.13588816 0.21287602 0.14141664 0.10294145 -0.07494551 -0.20284048
0.053200454 0.23098922 0.11126286 -0.20183736 -0.022164136 0.010154158 0.15866023 0.10561201
-0.17630169 -0.23576492 0.07423183 0.12204519 0.14338645 0.17209578 0.22099558 -0.10435587
-0.24316934 0.12242997 0.2411488 -0.18209663 -0.1258513 0.21405181 0.19525933 -0.023910731
-0.14269528 0.04583192 -0.24485984 -0.09874743 -0.032352537 -0.059583962 0.10301134 0.0052900314
-0.196971 -0.02452457 0.023225486 0.15620646 0.014076471 -0.0871743 0.09736726 0.11519742
0.047451526 -0.1342445 0.06762722 0.03573981 0.14033666 -0.06830776 -0.016237319 0.13045079
-0.03321281 0.13046655 -0.040168643 0.21957132 -0.0019209981 -0.052736104 0.08668637 -0.012657285
0.2001257 -0.03507796 0.16807494 -0.064646095 0.021961868 0.08107698 -0.23463446 0.048117936
0.13594869 0.09869465 0.0061292946 -0.025823712 0.07867941 0.07568616 -0.12043384 0.0975804
-0.21409187 0.00982666 -0.085956275 -0.10460353 -0.20275524 0.19651762 0.023029268 0.01719305
-0.03763011 -0.10367662 -0.19328073 0.047621965 -0.19502845 -0.10698545 0.12567294 0.20918083
-0.07990387 -0.24627727 0.24449447 0.13533539 0.18041736 -0.045597315 -0.05151391 0.02444604
0.061184853 0.006461978 -0.12975207 0.22330946 0.11675456 -0.022586733 -0.21296436 -0.12312725
-0.087194145 -0.04169786 0.06918955 -0.041778356 0.08650741 -0.16238374 -0.054703504 0.112992555
0.24552792 -0.2111972 0.02598998 0.1320279 -0.02696982 0.058245003 0.15608507 -0.24840859
0.14803618 -0.22349527 0.046443254 0.15132296 -0.11364281 0.0022567213 -0.24000207 -0.0153980255
0.14088169 0.124604225 0.06681135 -0.02051434 -0.102432996 0.2032167 0.07383564 0.088953316
0.12173152 -0.07066387 -0.019072622 0.23589984 0.22377121 -0.24812517 -0.21334833 -0.07184163
0.063192844 -0.13082209 0.123871505 -0.22429574 -0.03022024 0.16114652 -0.06381559 -0.063997656
0.054228187 0.19151151 0.05608067 0.0061947107 -0.006186247 -0.21185952 -0.0990105 0.2490029
-0.16732138 0.1179634 -0.08681303 0.08461401 0.11098561 0.1768032 -0.15512964 -0.031720728
-0.17041633 0.050949216 -0.11833644 0.024711698 -0.20567667 -0.056427956 -0.20883983 -0.21153295

bias f4 [16]
00000000: 68d0 b03d c03d 273c e858 bcbd bc90 e1bd
00000010: f2c0 5e3e 008f d93c e448 8e3d 464f 7f3e
00000020: a268 773e 708a 59bd 1e61 013e 8098 27bb
00000030: 02fe 44be 46cc 253e f012 01bd 70a8 cdbc
0.086335 0.010207593 -0.09196645 -0.11013934 0.2175329 0.026557446 0.069474965 0.24932584
0.24161008 -0.05311054 0.12634704 -0.0025573075 -0.19237521 0.16191205 -0.0315122 -0.025104731
