results/models/Senokosov2024Circuit_expID_69_dfID_1.pth (torch, 21905 bytes, 5 tensors)

weights f4 [4, 9]
0	0xbf857840	-1.0427322
1	0x4031320a	2.7686791
2	0xc0c90414	-6.281748
3	0xc01ef93c	-2.483962
4	0xc08e0c42	-4.4389963
5	0xc0a3ee2d	-5.122824
6	0xc07c5313	-3.9425704
7	0xbff86a35	-1.9407412
8	0xbfa60c8e	-1.2972581
9	0x3ef9bf04	0.48778546
10	0xbf81f9aa	-1.0154316
11	0x4014f65d	2.3275368
12	0xc06db190	-3.7139626
13	0x40980cd0	4.751564
14	0xc0be0c79	-5.9390225
15	0x4009191d	2.1421578
16	0xbf8503cd	-1.0391785
17	0x3f3ccdfd	0.73751813
18	0xc0909be7	-4.519031
19	0xc072cd1b	-3.7937686
20	0x4071df86	3.7792678
21	0x40bc4c95	5.8843484
22	0xc0160d9d	-2.344581
23	0x401aacce	2.4167972
24	0x40975ae5	4.7298455
25	0x409eae46	4.9587736
26	0xc0a6dd16	-5.214488
27	0xc0b95b69	-5.7924085
28	0xc084c4e2	-4.1490335
29	0x40980f64	4.7518787
30	0xc0a183ab	-5.0473228
31	0xbf7dcbca	-0.9913908
32	0x40b820d9	5.7540097
33	0x3ed56285	0.41676727
34	0x401a5115	2.4111989
35	0xc0145f03	-2.318299

weight f4 [16, 16]
0	0x3e03e84a	0.1288158
1	0xbde1fc54	-0.11034456
2	0xbd4683a0	-0.04846537
3	0x3df05120	0.11734223
4	0xbe710202	-0.23535922
5	0x3e198712	0.14992931
6	0xbd52a9a8	-0.051431328
7	0x3e023d0a	0.12718597
8	0x3d0e5a78	0.034754246
9	0xbcfac400	-0.030611038
10	0x3d8e0240	0.06934023
11	0x3c4a1020	0.012332946
12	0x3dbaff30	0.091307044
13	0xbdc786e4	-0.09742525
14	0xbc955130	-0.01822719
15	0xbcb86040	-0.022506833
16	0x3d146c30	0.03623599
17	0xba82e700	-0.0009987056
18	0x3e5fc964	0.21854168
19	0x3d9f5450	0.07779753
20	0xbdbeac08	-0.09310156
21	0xbe1a9d36	-0.15099034
22	0xbd2ba370	-0.041903913
23	0xbddcd8b0	-0.10783517
24	0xbda411d4	-0.08011213
25	0x3c441f80	0.011970401
26	0x3e189bd4	0.14903194
27	0x3e0b2538	0.13588417
28	0xbe7a40c6	-0.24438772
29	0x3e1eb31c	0.15498012
30	0x3d8f08c8	0.06984097
31	0x3e72d488	0.23713887
32	0x3e28f9ae	0.16501495
33	0xbe694052	-0.22778443
34	0xbe73682e	-0.2377021
35	0xbdf6f43c	-0.12058303
36	0x3e60cbee	0.21952793
37	0xbd2a9110	-0.04164225
38	0x3ddb1d80	0.10698986
39	0xbdedeea8	-0.11617786
40	0x3e7b311a	0.2453045
41	0xbdd8a05c	-0.10577461
42	0x3e3ffb12	0.1874812
43	0x3b420380	0.0029604137
44	0xbe06dd82	-0.13170436
45	0x3e03967a	0.12850371
46	0xbe07e3d4	-0.13270503
47	0x3d9694e4	0.073526174
48	0xbd93d7fc	-0.0721893
49	0xbce08800	-0.0274086
50	0xbe761d88	-0.24034703
51	0xbdf41cbc	-0.11919543
52	0x3e0aea10	0.1356585
53	0xbd78e940	-0.06076932
54	0x3e7efd1a	0.24901238
55	0x3e4d34e6	0.2003971
56	0xbc3fca20	-0.011705905
57	0xbe2ae02c	-0.16687077
58	0x3e1be4f2	0.15224054
59	0x3d9ee720	0.07758927
60	0xbe257bc4	-0.16160494
61	0x3e26488e	0.16238615
62	0x3e1b6b06	0.15177545
63	0x3e630b8c	0.22172374
64	0xbe0f80d6	-0.14013991
65	0xbd288e78	-0.041151494
66	0xbb9eb1c0	-0.004842967
67	0x3d159018	0.03651437
68	0xbe424878	-0.18972957
69	0xbe35a9d0	-0.1774056
70	0x3e0b43e2	0.13600114
71	0xbd701ea8	-0.058622986
72	0x3dfa1930	0.122118354
73	0x3c698340	0.014252484
74	0x3da81cd0	0.082086205
75	0x3d612a80	0.05497217
76	0x3dba29b4	0.090899855
77	0x3dfdcdcc	0.12392768
78	0xbe6d15ae	-0.23152801
79	0x3e00dba4	0.12583786
80	0xbe33ffe2	-0.1757808
81	0xbe412780	-0.18862724
82	0x3c791880	0.015203595
83	0xbd2e7f38	-0.042601794
84	0x3e165ade	0.146831
85	0xbe14423c	-0.14478391
86	0xbe639452	-0.22224548
87	0x3e3a4f0e	0.1819422
88	0xbd17d730	-0.037070453
89	0x3e0ffd32	0.1406143
90	0x3da499a0	0.08037114
91	0xbe3ff7d4	-0.18746883
92	0x3d4db848	0.050224572
93	0x3d75f618	0.060049146
94	0xbe2b6832	-0.16738966
95	0xbdf2ee08	-0.11861807
96	0x3dae945c	0.08524391
97	0x3d376be8	0.04478064
98	0xbdd9ca70	-0.10634315
99	0xbd9afd94	-0.075678974
100	0x3e6a774a	0.22897068
101	0xbd3d7638	-0.04625532
102	0x3e1054a6	0.14094791
103	0x3dddb298	0.1082508
104	0xbe257af0	-0.16160178
105	0xbe59b5c0	-0.21260738
106	0x3e75bb44	0.23997217
107	0x3c55e140	0.013054192
108	0x3e2f7a2e	0.17136452
109	0x3d543478	0.05180785
110	0x3da4abbc	0.08040568
111	0x3e3f38ae	0.18673965
112	0x3e72be32	0.23705366
113	0xbe29e072	-0.16589525
114	0x3d000798	0.031257242
115	0x3e3f0ab8	0.18656433
116	0x3e397494	0.18110877
117	0x3e1f097c	0.15530962
118	0xbe3945a4	-0.18092972
119	0xbe3858c0	-0.18002605
120	0xbe1ad250	-0.1511929
121	0x3d00a4b8	0.031407088
122	0x3e7f256e	0.24916622
123	0xbe21b57e	-0.1579189
124	0x3e086ae2	0.13322023
125	0xbe0db166	-0.13837203
126	0xbe70b1fa	-0.23505393
127	0xbd59a400	-0.05313492
128	0x3e137ff0	0.14404273
129	0x3e6da9fa	0.23209372
130	0xbe1efc66	-0.1552597
131	0x3d5e3830	0.054252803
132	0x3e5ce468	0.21571505
133	0x3e29a3aa	0.16566339
134	0x3e1f8b8c	0.15580577
135	0x3e35ec04	0.17765814
136	0x3e21ec98	0.1581291
137	0x3d843f6c	0.06457409
138	0xbe2f0ed6	-0.17095503
139	0xbe56fa6a	-0.20993963
140	0xbdea9be4	-0.11455515
141	0xbcee7b30	-0.029111475
142	0xbe1cea70	-0.15323806
143	0x3dbb512c	0.09146342
144	0x3d9e7530	0.077371955
145	0xbd67dea8	-0.056608826
146	0x3dc4c850	0.09608519
147	0x3da57878	0.08079618
148	0x3e1c4c48	0.15263474
149	0x3e2c66ce	0.16836092
150	0xbdad63e4	-0.08466318
151	0x3e7a1e5a	0.2442564
152	0xbcecc3c0	-0.028901935
153	0xbc0cb8e0	-0.0085889995
154	0xbe71a220	-0.23597002
155	0xbe24c408	-0.16090405
156	0xbe158e5c	-0.14605087
157	0xbddafe80	-0.10693073
158	0x3e36021a	0.17774239
159	0xbda74fd8	-0.08169526
160	0xbe3f4dd2	-0.1868203
161	0x3dc4fdf0	0.09618747
162	0x3da3ed44	0.08004239
163	0x3e25cf0e	0.16192266
164	0xbe04790e	-0.12936804
165	0x3d5e04c0	0.05420375
166	0xbdba64d8	-0.09101266
167	0xbd661120	-0.056168675
168	0xbe4c02d8	-0.1992296
169	0xbde95980	-0.11394024
170	0xbd9ccdd0	-0.07656443
171	0x3ddaf304	0.10690883
172	0x3d3b12f0	0.045672357
173	0x3d7cf1e0	0.061754107
174	0x3e7f83d2	0.24952629
175	0x3e798130	0.24365687
176	0x3e2e9aa4	0.17051178
177	0x3c026e60	0.007960886
178	0xbe31193e	-0.17294785
179	0x3e481104	0.19537741
180	0xbd800850	-0.062515855
181	0xbca59240	-0.020211339
182	0xbe5c8b32	-0.21537474
183	0xbd4a44f0	-0.04938215
184	0xbe251dec	-0.16124696
185	0x3e6b3d6c	0.2297265
186	0xbe5d5140	-0.21613026
187	0xbe478c2e	-0.19487068
188	0xbc0b15c0	-0.008489072
189	0xbe0a6c54	-0.13517886
190	0x3db73318	0.08945292
191	0xbdc514f8	-0.0962314
192	0xbdf07ae4	-0.117421895
193	0x3c67fce0	0.014159411
194	0x3e395160	0.18097448
195	0xbe341394	-0.17585593
196	0x3df0703c	0.11740157
197	0x3e24770a	0.16061035
198	0x3e7a6b22	0.2445493
199	0xbe332eac	-0.17498273
200	0x3d7800a0	0.06054747
201	0xbe3d4b14	-0.18485671
202	0x3e5a8f60	0.21343756
203	0xbdc69ba8	-0.09697658
204	0x3e1a33ca	0.15058818
205	0x3bf3e340	0.007442862
206	0xbc9f80f0	-0.019470662
207	0xbc02b1c0	-0.007976949
208	0x3d2e1308	0.04249862
209	0x3df15ad4	0.11784902
210	0x3d243aa0	0.04009497
211	0x3d9c3028	0.076263726
212	0xbe664740	-0.22488117
213	0x3e3a816e	0.18213436
214	0x3e5f327a	0.21796599
215	0x3e539c70	0.20665145
216	0x3e3d3db2	0.18480566
217	0xbe38bcd6	-0.18040785
218	0xbdbdcc64	-0.092675
219	0x3e61b8c0	0.22043133
220	0xbe42fc0e	-0.19041464
221	0x3e683fa6	0.2268053
222	0xbe4957ce	-0.19662401
223	0xbe34541e	-0.17610213
224	0x3dfa4e38	0.1222195
225	0xbe37eee6	-0.17962226
226	0xbd6a9960	-0.057275176
227	0x3e3a3ce8	0.18187296
228	0x3e4ac656	0.19802222
229	0x3e721d0c	0.23643893
230	0xbd4fc998	-0.050729364
231	0xbe46fa90	-0.1943152
232	0x3e7c0f76	0.24615273
233	0xbd5a2388	-0.05325654
234	0xbdd2a7a0	-0.10285878
235	0x3d799fd8	0.060943455
236	0xbe3306ee	-0.17483112
237	0x3e284384	0.16432005
238	0x3e20718e	0.15668318
239	0xbe4b2196	-0.19837031
240	0xbe524576	-0.2053431
241	0xbcb365c0	-0.021899104
242	0x3dd70d94	0.10500637
243	0xbbed4200	-0.007240534
244	0xbe01cfd6	-0.1267694
245	0x3bbb4a00	0.0057156086
246	0xbe709f66	-0.23498306
247	0xbe34ee4a	-0.17669025
248	0xbe2a6a9e	-0.16642234
249	0x3e52d2e2	0.20588258
250	0x3e61aa5e	0.22037646
251	0xbdade8cc	-0.08491668
252	0x3c37b500	0.011212587
253	0x3de45738	0.11149448
254	0x3cf562d0	0.029954344
255	0xbe003152	-0.12518814

bias f4 [16]
0	0x3e13a520	0.14418459
1	0x3e1d5f38	0.15368354
2	0xbc6d62c0	-0.014488876
3	0xbcfc1d30	-0.030775636
4	0x3e68a386	0.22718629
5	0x3e5fc6e8	0.2185322
6	0xbe11257c	-0.14174455
7	0x3e7a779c	0.2445969
8	0x3d7d6970	0.06186813
9	0xbe2a0d00	-0.16606522
10	0x3e0c233a	0.13685313
11	0xbe3f1f82	-0.18664363
12	0x3e6c8696	0.23098215
13	0xbe2493ba	-0.16071978
14	0x3d90ced4	0.07070699
15	0x3d9be774	0.076125056

weight f4 [10, 1]
0	0x3e7184b3	0.23585777
1	0x3f54d818	0.8314223
2	0xbed3a286	-0.41334933
3	0xbed7208a	-0.42017013
4	0xbf5d548a	-0.8645712
5	0xbd1fe7f0	-0.039039552
6	0xbef18555	-0.47172037
7	0x3d2c50ef	0.04206937
8	0xbe4fdecb	-0.20299833
9	0x3eaae705	0.3337938

bias f4 [10]
0	0x3f5df8b6	0.8670763
1	0x3e960e59	0.2930782
2	0xbea5f5b5	-0.32414022
3	0xbefc42ad	-0.4926962
4	0xbf5fc87f	-0.8741531
5	0x3f56e5fe	0.8394469
6	0xbe4408e3	-0.19144015
7	0x3e4ca6cf	0.19985507
8	0x3d0f52d8	0.034991115
9	0xbf23a702	-0.6392671
