results/models_10/model_expID_69_dfID_17.pth (torch, 33043 bytes, 5 tensors)

weights f4 [4, 3]
0	0xc0c4e3e6	-6.1528196
1	0x3cc0fa3b	0.02355682
2	0xbd598e73	-0.053114366
3	0xc0933ef2	-4.6014338
4	0xc08fea69	-4.4973645
5	0xc062593a	-3.536696
6	0xbf831448	-1.0240564
7	0xc04a96cd	-3.1654541
8	0xc0a74271	-5.2268605
9	0xbff883c6	-1.9415214
10	0xc085ff47	-4.187412
11	0x40983a47	4.757114

weight f4 [16, 16]
0	0x3d9f85f8	0.077892244
1	0xbdcaba90	-0.09898865
2	0xbc24b040	-0.010051787
3	0x3e0e03ea	0.1386868
4	0x3e55ff6c	0.20898217
5	0x3e5cb070	0.2155168
6	0xbdf56414	-0.11981979
7	0x3e68272c	0.22671193
8	0xbd74dc18	-0.05978021
9	0xbd376df8	-0.04478261
10	0x3e66ec2c	0.2255103
11	0x3d0c8da0	0.03431475
12	0xbe394b8a	-0.18095222
13	0xbe1615b0	-0.1465671
14	0x3be3be80	0.0069501996
15	0xbbf5c3c0	-0.007500142
16	0x3c1ddf00	0.009635687
17	0xbd9ce62c	-0.07661089
18	0xbcd66a50	-0.02617374
19	0x3d86b684	0.06577781
20	0x3dc76b74	0.09737292
21	0x3e2497b8	0.16073501
22	0x3e527f00	0.20556259
23	0x3ded0ef0	0.11575115
24	0xbcd9f120	-0.026604235
25	0xbe5ae68a	-0.21377006
26	0x3e56d3b0	0.2097919
27	0x3e111f94	0.14172202
28	0x3e716770	0.23574615
29	0x3d456ee8	0.04820147
30	0x3d818cf8	0.06325716
31	0x3dace3a8	0.084418595
32	0x3e4796f8	0.19491184
33	0x3e22b4f0	0.15889335
34	0x3de79030	0.113067985
35	0xbd3f3770	-0.04668373
36	0xbe01ce54	-0.12676364
37	0x3d2875c0	0.04112792
38	0x3e249102	0.16070941
39	0xbbdc1200	-0.006716013
40	0x3e6055c6	0.2190772
41	0xbe2b7cea	-0.1674687
42	0x3e0d774a	0.13815036
43	0x3d5a6898	0.053322405
44	0xbe2a9434	-0.16658098
45	0x3deaf9dc	0.11473438
46	0xbe13e6ee	-0.14443561
47	0x3e307da0	0.17235422
48	0x3e0c6a70	0.13712478
49	0xbe648f9e	-0.2232041
50	0x3e03c77e	0.12869069
51	0x3d234b40	0.039866686
52	0x3df5ba34	0.11998406
53	0x3df706ec	0.12061867
54	0xbd15be30	-0.03655833
55	0xbdc7c97c	-0.09755227
56	0xbd518998	-0.05115661
57	0xbdb4d48c	-0.088296026
58	0xbe652428	-0.22377074
59	0x3dc35fe8	0.09539777
60	0xbddedd28	-0.10882026
61	0x3d7cf1f8	0.061754197
62	0xbd8213a8	-0.063514054
63	0x3e36e364	0.1786018
64	0x3c95d280	0.01828885
65	0xbe6d69f8	-0.23184955
66	0xba2e1600	-0.00066408515
67	0xbd18b4e8	-0.0372819
68	0xbe065798	-0.13119352
69	0x3e5b5174	0.2141779
70	0x3d399400	0.04530716
71	0xbd9e72d8	-0.077367485
72	0xbe7c6c90	-0.24650788
73	0x3e691120	0.22760439
74	0xbe42fcf8	-0.19041812
75	0x3cbeeef0	0.023307294
76	0x3e1d220a	0.15345016
77	0xbe59a818	-0.21255529
78	0x3da8d860	0.08244395
79	0x3e74b326	0.23896465
80	0xbdcf3188	-0.10116869
81	0xbdac8760	-0.08424258
82	0xbe675cf8	-0.22594059
83	0xbe7e240a	-0.24818435
84	0xbd8dfae0	-0.06932616
85	0x3e42cf80	0.19024467
86	0x3a900100	0.0010986626
87	0xbe405dbc	-0.18785757
88	0x3e2627da	0.1622614
89	0x3cd5cdb0	0.026099056
90	0x3e6d78d8	0.2319063
91	0xbe79651a	-0.24354973
92	0xbe692e66	-0.22771606
93	0x3cd4dc70	0.025984019
94	0xbe4b0612	-0.19826534
95	0xbe5bb31c	-0.21455044
96	0x3e33d31e	0.17561004
97	0xbe529e20	-0.20568132
98	0xbe4c9418	-0.19978368
99	0x3d9470b8	0.07248062
100	0x3da5c398	0.08093947
101	0x3e70a784	0.23501402
102	0xbda1f98c	-0.079089254
103	0x3cc99b20	0.024610102
104	0xbe1c5d3c	-0.15269941
105	0x3d61f1e8	0.05516234
106	0x3d2a6b70	0.041606367
107	0xbde6a5b4	-0.11262074
108	0x3e3f9152	0.18707779
109	0xbc6eaac0	-0.014567077
110	0xbd4cb670	-0.049978673
111	0xbda4283c	-0.080154866
112	0xbd441368	-0.04787007
113	0xbd0faa80	-0.03507471
114	0x3d823344	0.063574344
115	0x3e37e9c0	0.17960262
116	0x3c0c2440	0.008553565
117	0x3e624120	0.22095156
118	0xbd9cf070	-0.07663047
119	0x3dd39aa8	0.10332233
120	0xbe6fd190	-0.23419785
121	0x3e003ce0	0.12523222
122	0x3d76d070	0.060257375
123	0x3dbf932c	0.09354243
124	0xbe4ed2c6	-0.20197591
125	0x3e4ef78e	0.20211622
126	0xbdd2b294	-0.10287967
127	0xbc338c00	-0.010958672
128	0x3e26dda4	0.16295487
129	0xbe6ea4b8	-0.23305023
130	0x3e3537b6	0.17697033
131	0xbe091780	-0.13387871
132	0xbe6fe8fe	-0.23428723
133	0xbe071134	-0.13190156
134	0xbe49a928	-0.19693434
135	0x3e459cae	0.1929805
136	0x3e042aec	0.12906998
137	0xbe29cebe	-0.16582772
138	0x3dc55fdc	0.09637424
139	0x3de6dfb0	0.11273134
140	0x3c427ac0	0.011870086
141	0x3e098da4	0.13432938
142	0xbe5acc56	-0.2136701
143	0x3e36f6c0	0.17867565
144	0x3e32f520	0.1747632
145	0x3ba9ee40	0.0051858723
146	0xbca4cab0	-0.02011618
147	0xbd30d168	-0.043168455
148	0xbc70a520	-0.014687806
149	0xbe13c606	-0.14431009
150	0x3d956bc0	0.07295942
151	0x3d416af0	0.047221124
152	0xbc4b5680	-0.01241076
153	0x3e7dbbfc	0.24778742
154	0xbc34c620	-0.011033565
155	0xbe49b4ea	-0.1969792
156	0x3ccd8160	0.025086105
157	0xbe5469ae	-0.20743439
158	0xbe50e77c	-0.20400804
159	0xbdd8ce68	-0.10586244
160	0xbe4cc668	-0.19997561
161	0xbe466056	-0.19372687
162	0xbd5e5e80	-0.05428934
163	0x3ca9fe90	0.020751268
164	0xbc598a00	-0.013277531
165	0x3d1f4ea8	0.03889337
166	0x3c476240	0.012169421
167	0x3e5586ea	0.20852247
168	0x3cf490a0	0.029854119
169	0x3c8d0f30	0.017219156
170	0x3c4c02c0	0.0124518275
171	0x3babc740	0.0052422583
172	0xbd1e48e8	-0.038643748
173	0xbd0a5a10	-0.033777297
174	0x3e5e1c02	0.21690372
175	0xbc685740	-0.014180958
176	0x3e4631c2	0.19354919
177	0x3dd5a760	0.10432315
178	0x3e778c30	0.24174571
179	0x3e5c5acc	0.21519011
180	0xbe3cc1b0	-0.18433261
181	0xbe35b45e	-0.17744586
182	0xbe60f6f2	-0.21969202
183	0xbe6768ac	-0.22598523
184	0xbd720000	-0.05908203
185	0xbe1c1aa6	-0.1524454
186	0x3d408108	0.046998054
187	0xbe16eb22	-0.14738134
188	0x3e218574	0.15773565
189	0x3e7db246	0.24775037
190	0x3de16758	0.110060394
191	0x3d975388	0.07388979
192	0xbe71dae0	-0.2361865
193	0xbe369352	-0.17829636
194	0xbd672e18	-0.056440443
195	0x3df6de90	0.12054169
196	0x3d1ea710	0.038733542
197	0x3d93d4a0	0.072182894
198	0xbe62b3aa	-0.22138849
199	0x3e3af570	0.1825769
200	0xbe37531e	-0.179028
201	0x3de37448	0.11106163
202	0x3e23bca8	0.15989935
203	0xbc2ca6c0	-0.010537803
204	0x3e1a4856	0.15066656
205	0x3dd77220	0.105198145
206	0xbc773be0	-0.015089959
207	0xbe764054	-0.24047977
208	0xbe20b038	-0.15692222
209	0xbc3ef0e0	-0.011654109
210	0x3e1f4056	0.15551886
211	0x3d99504c	0.074860185
212	0xbca34ab0	-0.019933075
213	0xbdff3b3c	-0.1246247
214	0x3e171bb2	0.14756659
215	0x3cf4ffc0	0.029907107
216	0x3e23f704	0.16012198
217	0x3da22ec4	0.07919076
218	0xbd3597c8	-0.044334203
219	0x3e513a62	0.20432428
220	0xbd9d6c20	-0.07686639
221	0xbe7dd98c	-0.24790019
222	0x3d9f44a8	0.07776767
223	0xbe22996e	-0.15878841
224	0xbe099d12	-0.13438824
225	0xbe78687a	-0.24258605
226	0xbe56c978	-0.20975292
227	0xbd211570	-0.039327085
228	0xbe19ac3a	-0.15007105
229	0x3dab8c28	0.08376342
230	0xbe27277a	-0.16323653
231	0x3e6155c2	0.2200537
232	0x3e66623a	0.22498408
233	0xbd11ca30	-0.03559321
234	0x39c48800	0.0003748536
235	0x3d894e28	0.0670436
236	0xbc6e6e40	-0.014552653
237	0xbe72bbea	-0.23704496
238	0xbe351874	-0.1768511
239	0xbdc72934	-0.09724656
240	0x3df36d3c	0.11886069
241	0x3ca741d0	0.020417124
242	0xbe5cad3e	-0.21550462
243	0xbe575446	-0.21028242
244	0x3e44c5c4	0.19216067
245	0x3e2d7bf8	0.16941822
246	0xbe76a898	-0.24087751
247	0x3e3aae32	0.18230513
248	0xbdac860c	-0.08424005
249	0x3c962c60	0.018331707
250	0xbd29e088	-0.041473895
251	0x3da7ef3c	0.08199927
252	0x3e1c64d6	0.15272841
253	0x3ddadfec	0.10687241
254	0xbe022716	-0.12710223
255	0xbdb64b44	-0.089010745

bias f4 [16]
0	0xbd3d6648	-0.04624012
1	0x3e20bdd4	0.15697414
2	0x3df1b870	0.11802757
3	0x3e5beafa	0.21476355
4	0x3e648daa	0.22319666
5	0x3dfbd684	0.12296775
6	0x3e02fc46	0.12791547
7	0xbdf1c6a8	-0.11805469
8	0xbe49dbec	-0.197128
9	0xbe012f06	-0.12615594
10	0x3ccfa790	0.025348455
11	0xbe510918	-0.20413625
12	0x3dc1de34	0.0946621
13	0x3e2bab2a	0.16764513
14	0x3e32dd04	0.17467123
15	0xbe4796cc	-0.19491118

weight f4 [10, 1]
0	0xbd98ea27	-0.07466536
1	0x3c2afd59	0.010436379
2	0x3e85be42	0.26121718
3	0xbf4f304a	-0.8093306
4	0x3f2cc130	0.6748228
5	0x3e03fc6d	0.12889262
6	0xbf3337f3	-0.70007247
7	0x3d2265f2	0.039648004
8	0xbc9d070d	-0.019168401
9	0xbe651336	-0.2237061

bias f4 [10]
0	0xbf29bc13	-0.66302603
1	0x3e64171b	0.22274439
2	0x3e973fb2	0.29540783
3	0x3ec6d1ee	0.3883204
4	0xbf2a501b	-0.6652848
5	0x3eaefa1e	0.341752
6	0xbf204ff5	-0.62622005
7	0x3f3fd1d3	0.7492954
8	0xbcd94ee6	-0.02652688
9	0xbf03e485	-0.5152057
