results/models_10/model_expID_69_dfID_18.pth (torch, 33043 bytes, 5 tensors)

weights f4 [4, 3]
0	0x405a3582	3.4095159
1	0xc0c0b792	-6.0224085
2	0x3fd6f8fb	1.6794733
3	0x40481997	3.1265619
4	0xbc99b196	-0.018761437
5	0xc05d54e8	-3.4583073
6	0xc072d50e	-3.7942538
7	0x405187ff	3.2739255
8	0xc0850ef5	-4.158076
9	0xc0a589d3	-5.1730742
10	0x40151341	2.3293002
11	0x40b651fe	5.697509

weight f4 [16, 16]
0	0xbcabaf70	-0.020957679
1	0xbc0c7060	-0.008571714
2	0xbdc00070	-0.093750834
3	0x3d6b9078	0.057510823
4	0xbe127580	-0.14302635
5	0xbd349478	-0.044086903
6	0x3dc671ec	0.096896976
7	0x3e704938	0.2346543
8	0x3d713ec8	0.058897763
9	0xbdadb48c	-0.08481702
10	0x3cc45f00	0.02397108
11	0xbce58630	-0.028018087
12	0x3dd0fdc4	0.10204652
13	0x3cea7fa0	0.02862531
14	0x3dc89020	0.09793115
15	0x3e784892	0.24246433
16	0xbdd49c00	-0.10381317
17	0xbc10c2c0	-0.0088354945
18	0x3d6b8140	0.05749631
19	0xbad60a00	-0.0016329885
20	0xbcc425c0	-0.023943782
21	0xbe628d1a	-0.22124138
22	0xbe5cd3e0	-0.21565199
23	0xbe665d38	-0.22496498
24	0xbe7a7e22	-0.24462178
25	0xbe6e6cea	-0.23283735
26	0xbe41ef94	-0.18939048
27	0xbe66e550	-0.22548413
28	0xbe70252a	-0.23451677
29	0x3de071e8	0.10959226
30	0x3e1d047c	0.15333742
31	0x3e2cfc42	0.16893104
32	0x3e09e990	0.13468003
33	0x3dad7d90	0.08471215
34	0x3de18f38	0.11013645
35	0xbe0d929e	-0.13825461
36	0x3e667d66	0.22508773
37	0xbc8d3ca0	-0.017240822
38	0x3e5ce09a	0.21570054
39	0x3d9cf714	0.07664314
40	0x3e48601a	0.1956791
41	0x3e4c35e6	0.19942436
42	0xbd55f338	-0.052233905
43	0xbd94ea08	-0.072712004
44	0x3d1a1468	0.037617117
45	0xbc2e1480	-0.010625005
46	0x3d202ab0	0.03910321
47	0x3e01de3c	0.12682432
48	0xbe480ac4	-0.19535357
49	0xbc3bf4e0	-0.011471957
50	0xbe48eae8	-0.1962086
51	0x3e773a82	0.24143413
52	0xbe340bc2	-0.1758261
53	0x3d43d9c8	0.047815114
54	0xbd8be370	-0.0683049
55	0x3e118236	0.14209828
56	0x3a5c2400	0.00083976984
57	0xbccdfa30	-0.025143713
58	0x3e3b609a	0.1829857
59	0x3e69d32c	0.22834462
60	0xbe39c8d2	-0.18143013
61	0xbe76eb44	-0.24113184
62	0x3caaaf80	0.020835638
63	0x3da1462c	0.07874712
64	0x3d69b4e0	0.05705726
65	0x3e6c7894	0.23092872
66	0x3de5d360	0.11221957
67	0xbdeb89dc	-0.11500904
68	0xbe2f4fe2	-0.17120317
69	0x3e469c24	0.193955
70	0x3e755ba0	0.23960733
71	0xbdf2f628	-0.11863357
72	0xbe23d772	-0.16000155
73	0x3db33560	0.08750415
74	0xbe3714ea	-0.17879072
75	0xbd77cb78	-0.060496777
76	0xbe7d34a4	-0.24727112
77	0x3d8c121c	0.068393916
78	0xbdae94d4	-0.085244805
79	0xbe0f39c8	-0.13986886
80	0xbe22c9be	-0.15897271
81	0xbdb428b0	-0.08796823
82	0x3df32be8	0.11873609
83	0x3c67ec00	0.014155388
84	0x3e5c73b0	0.21528506
85	0xbdb6ff50	-0.08935416
86	0xbd95d5ec	-0.07316193
87	0x3e7a9008	0.24469006
88	0xbe742f72	-0.23846224
89	0xbdc98aa0	-0.09840894
90	0xbe1ed150	-0.15509534
91	0x3e764e64	0.24053341
92	0x3e084ad8	0.133098
93	0xbdab8d28	-0.08376533
94	0xbdd95b78	-0.106131494
95	0x3d9d05a0	0.076670885
96	0xbdad13c4	-0.084510356
97	0x3d9ef734	0.07761994
98	0xbe030950	-0.12796521
99	0xbe1e6ae2	-0.1547046
100	0xbbcd00c0	-0.006256193
101	0x3e16510c	0.14679354
102	0x3e5a09ec	0.21292847
103	0x3d6252a8	0.05525461
104	0xbe180a2c	-0.1484763
105	0x3e05d52c	0.130696
106	0x3dc7982c	0.09745821
107	0x3dda69c0	0.106647015
108	0xbdaab3d0	-0.08335078
109	0xbd0a2920	-0.033730626
110	0x3dec4780	0.11537075
111	0x3dd380f8	0.10327333
112	0x3e2a0bec	0.1660611
113	0xbe198e8e	-0.14995787
114	0x3e20bfe2	0.15698197
115	0xbdc726c4	-0.09724191
116	0xbbcda500	-0.006275773
117	0xbdf0fc60	-0.11766887
118	0xbd97c758	-0.07411069
119	0x3e2c95da	0.16854039
120	0x3e5ab272	0.21357134
121	0x3db24bac	0.087058395
122	0xbe40093e	-0.18753526
123	0xbdbcd338	-0.09219974
124	0x3e31945a	0.17341748
125	0xbd8a2160	-0.06744647
126	0xbe51204e	-0.2042248
127	0x3d6dd648	0.058065683
128	0xbe6342b6	-0.22193417
129	0xbac58000	-0.0015068054
130	0xbcfbc6e0	-0.03073448
131	0x3b1d0b80	0.0023963153
132	0xbd73cfe8	-0.059524447
133	0xbd15a718	-0.036536306
134	0xbe1ac1e0	-0.1511302
135	0xbe290558	-0.16505945
136	0x3da81548	0.08207184
137	0x3e66ece0	0.22551298
138	0xbe4c83e4	-0.19972187
139	0xbe71a79a	-0.23599091
140	0xbe0a7762	-0.13522103
141	0x3e75b9e6	0.23996696
142	0x3e666622	0.22499898
143	0xbe791a9c	-0.24326557
144	0x3d7861a8	0.060640007
145	0x3d0a1cc8	0.033718854
146	0x3e622adc	0.22086662
147	0xbd998140	-0.074953556
148	0x3da8d3a8	0.08243495
149	0xbdfd93bc	-0.12381694
150	0xbe6f24c0	-0.23353863
151	0x3ce5d510	0.028055698
152	0xbdf7845c	-0.120857924
153	0xbc806300	-0.015672207
154	0xbd621eb8	-0.055205077
155	0xbe4f0f4c	-0.20220679
156	0x3e15e218	0.14637029
157	0x3e30cbe4	0.17265278
158	0x3e43c23c	0.19117063
159	0x3d04e688	0.032446414
160	0xbe71bcde	-0.23607203
161	0xbe4cb808	-0.19992077
162	0xbcd73700	-0.026271343
163	0xbcd47800	-0.025936127
164	0xbe685ac2	-0.22690871
165	0x3e1eaaca	0.15494838
166	0xbe3ede6e	-0.18639538
167	0xbbe61000	-0.0070209503
168	0xbe743218	-0.23847234
169	0x3d8fc5f0	0.070201755
170	0x3a99a600	0.0011722445
171	0x3e3115fc	0.17293543
172	0x3d2c10b0	0.042008102
173	0xbe49e340	-0.19715595
174	0x3e715e84	0.23571211
175	0xbe5c477a	-0.21511641
176	0x3df5c6f8	0.12000841
177	0xbe324742	-0.17409995
178	0x3e0a22c6	0.13489828
179	0x3d7f9cd8	0.062405437
180	0x3d891148	0.06692749
181	0xbd73be10	-0.05950743
182	0x3e699dec	0.22814149
183	0x3e798c9a	0.24370041
184	0xbcd3e060	-0.025863826
185	0xbda32a54	-0.07967058
186	0x3d1f2180	0.038850307
187	0x3e24caea	0.1609303
188	0x3e6e2fba	0.23260394
189	0x3e68adda	0.22722569
190	0x3dee072c	0.11622462
191	0x3cec7f10	0.028869182
192	0xbe3c131a	-0.18366662
193	0xbe432454	-0.19056827
194	0x3e2d1b4a	0.16904941
195	0xbe66a1ea	-0.22522703
196	0xbc358d60	-0.01108107
197	0x3e4fef42	0.20306113
198	0xbe5d2b42	-0.21598533
199	0xbe31a2aa	-0.17347208
200	0xbe7e8050	-0.24853635
201	0x3e0ad5c0	0.13558102
202	0x3d5b3728	0.053519398
203	0x3e1a7892	0.15085056
204	0xbd096ac0	-0.03354907
205	0xbda5ca6c	-0.080952495
206	0x3e56fb56	0.20994315
207	0xbe27222a	-0.16321626
208	0xbe245d4c	-0.16051215
209	0x3e2f2c8e	0.1710684
210	0x3e6cb510	0.23115945
211	0xbe034256	-0.12818274
212	0xbe74ed70	-0.239187
213	0x3c483380	0.01221931
214	0xbafb0100	-0.0019150078
215	0x3d984db4	0.07436696
216	0x3e093c3c	0.13401884
217	0x3ce347b0	0.027744144
218	0xbe25784e	-0.16159174
219	0xbc8d1670	-0.017222613
220	0x3dec6338	0.11542362
221	0x3d27ee88	0.040998966
222	0xbe2f5656	-0.17122778
223	0xbc760840	-0.015016615
224	0xbd3d5f98	-0.046233743
225	0xbddcc55c	-0.10779831
226	0x3e01d742	0.1267977
227	0x3dc92810	0.098220944
228	0x3e5835ae	0.21114227
229	0x3e55cabc	0.20878118
230	0xbc1cbc80	-0.009566426
231	0xbe4ebbb2	-0.20188788
232	0x3da8456c	0.08216366
233	0x3e05a0ce	0.13049623
234	0x3e192612	0.14955929
235	0x3e1b2a0e	0.15152761
236	0x3e0b212c	0.13586873
237	0x3d5c4100	0.053772926
238	0x3c88f030	0.016716093
239	0x3dfed824	0.12443569
240	0xbe7d7698	-0.24752271
241	0x3dfc6f30	0.12325895
242	0x3d8e5b10	0.069509625
243	0x3d886278	0.066594064
244	0xbd8e28e8	-0.06941396
245	0x3d930fb8	0.071807325
246	0x3d728bc0	0.059215307
247	0xbe794118	-0.24341238
248	0xbdf09ad8	-0.11748284
249	0x3dff7c78	0.124749124
250	0xbe316eee	-0.17327473
251	0xbdb5dbf8	-0.08879846
252	0x3e14df82	0.14538386
253	0x3e036bf4	0.1283415
254	0xbe46301e	-0.19354293
255	0x3de36f98	0.11105269

bias f4 [16]
0	0xbe391b1a	-0.18076745
1	0x3e605bd4	0.2191003
2	0xbcd1d730	-0.025615305
3	0x3d0b6e58	0.03404078
4	0x3d9446d0	0.07240069
5	0xbe44daf6	-0.19224152
6	0x3e3691ba	0.17829028
7	0xbe295022	-0.16534474
8	0xbe645d58	-0.22301233
9	0x3d40dd80	0.04708624
10	0x3d90bef8	0.070676744
11	0x3e388e54	0.18023044
12	0xbe511abc	-0.20420355
13	0xbd523ac0	-0.05132556
14	0x3e48605c	0.19568008
15	0x3e08ef40	0.13372517

weight f4 [10, 1]
0	0xbf5064b6	-0.8140367
1	0xbd46c9e8	-0.048532397
2	0x3e022541	0.12709524
3	0xbf2cc5e8	-0.6748948
4	0x3f192c2e	0.5983304
5	0x3d8e5ca9	0.06951267
6	0xbea6b203	-0.32557687
7	0x3efdc190	0.4956174
8	0x3ec2f811	0.38079885
9	0x3f410c85	0.7540973

bias f4 [10]
0	0x3ec77768	0.38958287
1	0xbf50345a	-0.8132988
2	0x3f01e322	0.507372
3	0x3edceef4	0.43151057
4	0x3e3e18f8	0.18564212
5	0xbf1d9338	-0.61552763
6	0x3dc93ed0	0.09826434
7	0x3f78d54a	0.97200453
8	0xbda19090	-0.07888901
9	0xbf07ebce	-0.53094184
